devel/model/trained_model/lp/darts_TCN_20230524_170442.pickle.ckpt (torch, 17621 bytes, 36 tensors)

res_blocks.0.conv1.weight f8 [3, 1, 3]
00000000: 203f e306 3229 d53f e02b 0329 4cac c03f
00000010: 1b54 6773 4b75 d7bf 1e7d f61b 0aae a3bf
00000020: faad e17d 6fdd e0bf fed7 14f7 28c6 d43f
00000030: 9a1e c212 f625 dcbf f2d0 e7e9 4365 d93f
00000040: 8177 da00 5b4a c23f
0.3306393687498588 0.13025810244138736 -0.3665341021526857 -0.03843719092696517 -0.5270307024597394 0.324594727793169 -0.4398169692217181 0.3968057426675521
0.14289414922398794

res_blocks.0.conv1.bias f8 [3]
00000000: 65d3 d604 5c15 aebf 6e6a 4611 5b98 dbbf
00000010: c94a acb0 0a23 d33f
-0.05875670966216865 -0.431174055929353 0.29901377919410926

res_blocks.0.conv2.weight f8 [3, 3, 3]
00000000: e1e3 5ef7 920f d1bf 80c9 2bfe 27b2 c03f
00000010: 5be3 e812 b782 a6bf d58b 2ebc 7b0a cabf
00000020: 6f8e b520 b4eb c1bf ce98 79bc 354d adbf
00000030: 123b 4ac4 6fe4 bbbf efbb ef51 ac47 493f
00000040: e4bc e6ee e07d ab3f 4a05 6b67 621f b8bf
00000050: a1fe 6bc3 7b2c b2bf 3190 e9b4 e6ec c13f
00000060: 8cf0 3e85 ae74 adbf 3e27 92c6 a123 b83f
00000070: 656c 9a61 3c93 c7bf 7692 73bd fdcd c4bf
00000080: 8548 1f9b 98c9 cabf 662b a407 d15c d4bf
00000090: c664 3f01 8221 a83f 717b bd45 1f6a b63f
000000a0: d96d 3dc3 3fe5 d2bf 32ee afbb f8cb d1bf
000000b0: 24f4 6975 9725 a3bf 5612 6548 b826 b63f
000000c0: 0106 efa6 81af ccbf b635 9398 adb6 86bf
000000d0: e0ed ab37 8909 a23f
-0.2665755668381831 0.13043689642615774 -0.04396602731544049 -0.20344492615285384 -0.14000560376290447 -0.057229689843369166 -0.10895441572413869 0.0007714835554660774
0.053694752848395116 -0.09422888779501651 -0.07099126359025344 0.14004215081797747 -0.057530835881579895 0.09429370019838942 -0.18418078199178747 -0.1625363516860891
-0.2092772252495402 -0.3181650709745355 0.047130644466685065 0.0875567956222605 -0.2952422529831132 -0.2780744393237199 -0.0373961764171116 0.08652831809474412
-0.22410603190478187 -0.01109061834213319 0.03522900394997541

res_blocks.0.conv2.bias f8 [3]
00000000: 839b f315 a5f1 763f b941 3049 8713 b9bf
00000010: 3849 0379 d78e be3f
0.005601544252590854 -0.0979542306597584 0.1193670912209982

res_blocks.0.conv3.weight f8 [3, 1, 1]
00000000: e0b7 8899 8722 eebf 59b4 c5d1 8ca4 f1bf
00000010: 00e7 9f69 978c e93f
-0.9417150496208215 -1.1026733583669481 0.798412042902072

res_blocks.0.conv3.bias f8 [3]
00000000: 6941 0677 b1a3 dfbf 7df0 0b68 6b0a e0bf
00000010: a6f3 7daf fb28 f0bf
-0.49436604140739476 -0.5012719185028939 -1.0100056510120594

res_blocks.1.conv1.weight f8 [3, 3, 3]
00000000: 0000 00c0 e841 bc3f 0000 0000 58eb a73f
00000010: 0000 0060 9d5e c2bf 0000 0060 9336 bebf
00000020: 0000 0080 562b d33f 0000 00e0 8c2c d33f
00000030: 0000 0060 68d7 d03f 0000 0060 3334 b83f
00000040: 0000 00c0 6ecc b9bf c6e5 ff65 b264 acbf
00000050: 9450 f7df 91c4 c13f 0477 8dc0 2a57 d23f
00000060: d162 8b1f 8d62 c53f a659 f09f 45b3 d2bf
00000070: 17f1 97af 3bc2 af3f 5f3a 1975 5351 c03f
00000080: 9c7a d375 1dba 91bf 1eae 532c 6233 96bf
00000090: 0000 00c0 b20c cb3f 0000 00c0 dcb0 d4bf
000000a0: 0000 0080 eb34 d43f 0000 0080 360a d43f
000000b0: 0000 0060 ce86 c73f 0000 0000 5c35 aabf
000000c0: 0000 0060 a727 b63f 0000 0040 681e d3bf
000000d0: 0000 0000 7884 933f
0.11038069427013397 0.04671740531921387 -0.14351241290569305 -0.11802025884389877 0.2995201349258423 0.29959413409233093 0.2631474435329437 0.09454651921987534
-0.10077564418315887 -0.05545575614082625 0.13881133495181486 0.2865702515026529 0.16707004585511823 -0.29219189280538627 0.062028756317859805 0.12748187272741782
-0.017311535183461943 -0.021680387454507614 0.2113250195980072 -0.32329481840133667 0.3157299757003784 0.31312334537506104 0.18380145728588104 -0.05118834972381592
0.08654256910085678 -0.29873090982437134 0.01906001567840576

res_blocks.1.conv1.bias f8 [3]
00000000: 0000 0000 00be 8bbf 8caa 0e9b 7655 c43f
00000010: 0000 00c0 e693 c9bf
-0.013545989990234375 0.15885813304096918 -0.19982609152793884

res_blocks.1.conv2.weight f8 [1, 3, 3]
00000000: 0000 00c0 c212 babf 0000 0060 a2b4 c6bf
00000010: 0000 0000 5a25 c33f d359 b25d 4e5a d43f
00000020: 69a8 28b5 558f afbf 0f91 f364 ef61 cebf
00000030: 0000 0060 538d c23f 0000 0060 894b b53f
00000040: 0000 0060 4d59 d33f
-0.10184876620769501 -0.1773875206708908 0.14957737922668457 0.31801184797350607 -0.061640432705034005 -0.2373637431075015 0.1449379175901413 0.08318384736776352
0.302325576543808

res_blocks.1.conv2.bias f8 [1]
00000000: ad4a 8b08 8df9 d13f
0.2808563788832242

res_blocks.1.conv3.weight f8 [1, 3, 1]
00000000: 44af 11e0 d733 dbbf 35c0 f284 6021 e3bf
00000010: e286 63c8 b721 b8bf
-0.42503926164384986 -0.5978243443150918 -0.0942644943457043

res_blocks.1.conv3.bias f8 [1]
00000000: 2e3e 0e0a 967d d03f
0.2576651666831563

exp_avg f8 [3, 1, 3]
00000000: ca30 b47c abcf afbf 7dec 1673 3bd1 a7bf
00000010: 7d51 90e7 ab0d b0bf d13d 3013 5612 a530
00000020: 9789 39b3 e9a1 00bf 0243 f61a d976 863f
00000030: b248 af63 5a44 b63f 3610 3419 aeb2 b83f
00000040: c308 ea7d d078 b33f
-0.06213127038253814 -0.04651819019223866 -0.06270861056720452 2.3293198463829e-74 -3.172392316909687e-05 0.010968872199357719 0.08698048528393335 0.09647644152943333
0.07606223177029663

exp_avg_sq f8 [3, 1, 3]
00000000: 8b58 af20 341d 4240 77b2 54d5 c576 4140
00000010: 50f4 5cba a8f7 4040 2a4f ab5c 1e8a 413f
00000020: c4aa c5f9 2572 453f 2132 2e60 4d7d 1340
00000030: d20e 3df5 4bc5 5740 95d8 33c1 f6f6 5f40
00000040: 047f 9379 2e3c 6540
36.22815331041155 34.92791239390947 33.9348366693381 0.0005352638484858775 0.0006544766834342898 4.872365477389878 95.08276110613522 127.85881071150864
169.88067320640414

exp_avg f8 [3]
00000000: 1a26 6e95 572f 4abf c243 dc23 984e 433f
00000010: c3dd 493a e119 663f
-0.0007991006522029582 0.0005892031547053355 0.002697887323218602

exp_avg_sq f8 [3]
00000000: 8551 03a5 2017 973f eb10 fb35 64b7 693f
00000010: 37f9 043d 8436 bc3f
0.022549161979286154 0.003139205669727576 0.11020685662967798

exp_avg f8 [3, 3, 3]
00000000: 4b8a 0929 8c9c 853f 7dc5 c6f1 efaf 903f
00000010: 30da c049 6cca ac3f 00ef 2dc0 9bce 6731
00000020: f0b2 a19a eaf7 04bf ad59 c729 d57a 40be
00000030: bae3 7a6e 1fe2 9abf 505e fa18 2c28 ad3f
00000040: dfb9 2c5d 3363 b43f e78f 088a 6073 693f
00000050: 94bc f72c 0bd4 673f 70a5 d0f3 e66d 803f
00000060: 2661 5296 d646 cf3a 1ed8 9b66 4b76 83bf
00000070: d5f6 a0b6 b26b fcb5 6f2a 6b83 1bf1 ffbe
00000080: eda9 68e2 040e f3bb c7bb a3de 0349 7abe
00000090: fe29 d4c4 774f a1bf 9ec2 8256 6b17 93bf
000000a0: 6573 a06a 9870 7ebf 3f8c 1daf c8a6 7530
000000b0: 5ef0 dc34 a9ab a03f 7d36 dccc d400 b03f
000000c0: b94b dbac 54eb 82bf 234b a18d 2bff a23f
000000d0: 16fb 3e52 1cf7 b43f
0.010552496912343964 0.016296147472251377 0.056231864932147935 1.0779456600032263e-70 -3.999409393959884e-05 -7.674011919775794e-09 -0.02625321494881281 0.05694711499125715
0.07963868164799902 0.0031067739039531863 0.0029087274813189377 0.008022121730464987 2.0212101296144532e-25 -0.009502972668524786 -1.2153893200506323e-48 -3.0462099142517686e-05
-6.456004496659353e-20 -9.79200575378556e-08 -0.033809416558216995 -0.018644024996947388 -0.00743159806918645 2.9917760134553125e-75 0.0325596692113954 0.0625126838824261
-0.009237920308270963 0.03710304359323959 0.0818956089778847

exp_avg_sq f8 [3, 3, 3]
00000000: 837d bd3b 35c1 6040 8b12 941f 366f 6d40
00000010: 21b8 ca4b 011c 6c40 eb28 0b3f 49ce f13f
00000020: 5b45 1e47 fec9 1640 f830 8cfc 6b6d 1240
00000030: 4b88 184f 5b60 6740 b794 8bb8 8151 6d40
00000040: 7e7b 7a5f e454 7440 9f87 9215 d8fd f13f
00000050: 5916 dbe8 0e46 f93f 3986 a5fd 627d 0940
00000060: 5680 b033 bcca a33f ccb3 0c0f 4ab6 f43f
00000070: 03ba 5940 5a11 a63e 620a f48e fd70 df3f
00000080: 1a39 1b6a 5f98 f33f 0ee1 c5a5 5b5f 493f
00000090: 663c a20c c27b 4d40 3c1c 4f19 29f1 4f40
000000a0: 805e aa45 d0a6 3440 d21e b895 72f9 e63e
000000b0: 4f96 1454 b215 1f40 4b4b 83a6 59a1 1c40
000000c0: 4aef debe 259b 3640 bd60 f2c0 b9b0 4d40
000000d0: 2666 fb90 da2d 6340
134.03774821290799 235.4753568546333 224.8751582106934 1.1128628218307834 5.697259055349913 4.6068572483602495 187.01114611426814 234.54708506833933
325.3057551178425 1.1244736521407288 1.5796040626459187 3.186223966230298 0.038656121549366304 1.2945042217136118 6.576711945713757e-07 0.49127139053613267
1.2247003693369778 0.0007743070123487365 58.96685941621472 63.88406673777396 20.651615480512646 1.095504983707145e-05 7.771188081509151 7.157568551791722
22.606044701983855 59.380668753002716 153.43293046094294

exp_avg f8 [3]
00000000: c1fe 4711 fd22 893f 4174 88f4 7f0c 593f
00000010: 20e4 4da3 a8b4 803f
0.012273766603356663 0.0015288590967721535 0.008157079204226092

exp_avg_sq f8 [3]
00000000: ab7c 9d6d 9704 0040 79be 6fa7 c76e 9a3f
00000010: 3ed3 50b3 8bb5 e53f
2.0022419513403142 0.02581321677638335 0.6784113409290524

exp_avg f8 [3, 1, 1]
00000000: 3590 9df6 9fb0 dc3f 84a7 6a45 8d2d e43f
00000010: 3a18 62da 7678 b93f
0.4482803257326425 0.6305605274003345 0.09949438888188036

exp_avg_sq f8 [3, 1, 1]
00000000: 292d 25b4 e986 c140 06ab ea27 97e6 d840
00000010: 9980 ac5d 2ad3 bc40
8973.825810095836 25498.36181132032 7379.165491849323

exp_avg f8 [3]
00000000: 0a55 27c8 650c c53f c479 ce5b 059b cd3f
00000010: ddc1 9618 a4ac a23f
0.16444084427954692 0.2312933634065769 0.03647339630277078

exp_avg_sq f8 [3]
00000000: e8ca 2d22 21c2 1740 9cfa 65e0 27d2 3040
00000010: e124 d519 1347 1340
5.9395795193147265 16.82092096795769 4.819408801683694

exp_avg f8 [3, 3, 3]
00000000: 0000 0000 0000 0000 0000 0000 0000 0000
00000010: 0000 0000 0000 0000 0000 0000 0000 0000
00000020: 0000 0000 0000 0000 0000 0000 0000 0000
00000030: 0000 0000 0000 0000 0000 0000 0000 0000
00000040: 0000 0000 0000 0000 c850 294e 70ea 51b1
00000050: eb87 2c10 7590 51b1 3475 5c66 a04c 50b1
00000060: 32d7 488d e775 5ab1 106b 84c2 05c0 5ab1
00000070: b6aa fbeb 6642 5ab1 575b 10e6 7e39 5d31
00000080: 008a 4427 948d 5d31 2477 3273 91bd 5c31
00000090: 0000 0000 0000 0000 0000 0000 0000 0000
000000a0: 0000 0000 0000 0000 0000 0000 0000 0000
000000b0: 0000 0000 0000 0000 0000 0000 0000 0000
000000c0: 0000 0000 0000 0000 0000 0000 0000 0000
000000d0: 0000 0000 0000 0000
0.0 0.0 0.0 0.0 0.0 0.0 0.0 0.0
0.0 -4.055987980013198e-71 -3.976413486487215e-71 -3.690035845744285e-71 -5.9904594979321146e-71 -6.0560052811209624e-71 -5.944913622835911e-71 6.616213288152176e-71
6.690571579272987e-71 6.506618759174388e-71 0.0 0.0 0.0 0.0 0.0 0.0
0.0 0.0 0.0

exp_avg_sq f8 [3, 3, 3]
00000000: 0000 0000 0000 0000 0000 0000 0000 0000
00000010: 0000 0000 0000 0000 0000 0000 0000 0000
00000020: 0000 0000 0000 0000 0000 0000 0000 0000
00000030: 0000 0000 0000 0000 0000 0000 0000 0000
00000040: 0000 0000 0000 0000 9cb3 9c0b 8982 4d40
00000050: d903 3d3f 2d51 4d40 0187 ffa7 d5cf 4b40
00000060: 907a fe7c 0b30 6140 98a6 cb19 ccbd 6140
00000070: 7476 db41 fca1 6140 394d 2397 3cc6 6540
00000080: c0a8 1f0c d11f 6640 b02c da04 0d14 6640
00000090: 0000 0000 0000 0000 0000 0000 0000 0000
000000a0: 0000 0000 0000 0000 0000 0000 0000 0000
000000b0: 0000 0000 0000 0000 0000 0000 0000 0000
000000c0: 0000 0000 0000 0000 0000 0000 0000 0000
000000d0: 0000 0000 0000 0000
0.0 0.0 0.0 0.0 0.0 0.0 0.0 0.0
0.0 59.01980729247518 58.634193329613204 55.62370777108118 137.50140237524874 141.93116464400805 141.06204312194643 174.19489628691534
176.99426847632822 176.62658922779292 0.0 0.0 0.0 0.0 0.0 0.0
0.0 0.0 0.0

exp_avg f8 [3]
00000000: 0000 0000 0000 0000 c7fd a150 50d8 0831
00000010: 0000 0000 0000 0000
0.0 1.7577197260370573e-72 0.0

exp_avg_sq f8 [3]
00000000: 0000 0000 0000 0000 2b33 bf23 7ced be3f
00000010: 0000 0000 0000 0000
0.0 0.12081123230673245 0.0

exp_avg f8 [1, 3, 3]
00000000: 0000 0000 0000 0000 0000 0000 0000 0000
00000010: 0000 0000 0000 0000 3b0b 1a1a 6ce0 3fb1
00000020: 71ac 2fe1 2a03 45b1 5fbb ab40 f686 4ab1
00000030: 0000 0000 0000 0000 0000 0000 0000 0000
00000040: 0000 0000 0000 0000
0.0 0.0 0.0 -1.8041544251596905e-71 -2.3785163368309024e-71 -3.0027720616688916e-71 0.0 0.0
0.0

exp_avg_sq f8 [1, 3, 3]
00000000: 0000 0000 0000 0000 0000 0000 0000 0000
00000010: 0000 0000 0000 0000 ff7b 4889 6fce 3a40
00000020: 5cb6 7ce7 4290 4840 ce03 0881 2ddf 5340
00000030: 0000 0000 0000 0000 0000 0000 0000 0000
00000040: 0000 0000 0000 0000
0.0 0.0 0.0 26.806389408298852 49.127041755575846 79.48715234549238 0.0 0.0
0.0

exp_avg f8 [1]
00000000: 061f 5ca8 1659 c5bf
-0.16678126545615884

exp_avg_sq f8 [1]
00000000: dd7d 162c 42dc 5540
87.44153883167697

exp_avg f8 [1, 3, 1]
00000000: 145b eb1f aacb f23f c93c aea5 9db8 f53f
00000010: 0956 4b63 8566 e1bf
1.1747227904176656 1.3575722190760635 -0.5437647761670529

exp_avg_sq f8 [1, 3, 1]
00000000: 5e50 dad6 e899 f040 f10b 79b2 d95b fc40
00000010: 3489 5983 cd45 fa40
67998.55245429414 116157.60607247033 107612.84456781001

exp_avg f8 [1]
00000000: 02c0 49f8 0cc3 d8bf
-0.38690494772799877

exp_avg_sq f8 [1]
00000000: fc1c 6f3a cfce 5540
87.23139820910359
