devel/model/trained_model/lp/darts_RNN_20230519_154420.pickle.ckpt (torch, 26269 bytes, 18 tensors)

rnn.weight_ih_l0 f8 [25, 1]
0	0xbf954327b3904932	-0.02076398881406156
1	0x3f8850e5f429020a	0.011873051179578393
2	0x3f8b1f279f68dce0	0.01324301676969103
3	0xbf864a5fa4f18fd4	-0.010884043904475428
4	0x3fdcc7d030cb2613	0.44969563260073747
5	0x3faff65726b98cc7	0.06242630336489579
6	0xbf934052bae991df	-0.01880006089995045
7	0xbfc569a969d8246f	-0.16728704136065484
8	0x3f8637d8bbfdd460	0.010848706471487002
9	0xbf92227673e2b276	-0.017709589789478085
10	0xbfe26368ffabdc39	-0.574635028226914
11	0x3f9286b5a7953c1a	0.018092001298381268
12	0xbfdc650dfd01e2e8	-0.4436678858542522
13	0xbf9177569642a27a	-0.017056801720772154
14	0x3fe1d7b107c4b8a5	0.5575795318343536
15	0xbfe03cc4568f9c3e	-0.5074178400653933
16	0xbf93683caaf12d76	-0.01895232003543642
17	0xbfe10a9dd8309b20	-0.532545969243845
18	0xbfde503d0e6c765e	-0.47364736946642505
19	0x3fe164a0c7f75aae	0.543533697661436
20	0xbf80adab85bc07b9	-0.008143749254944642
21	0x3fd340eb543b60d8	0.3008373568132021
22	0x3f904ebabeb0dc81	0.015925329102369993
23	0x3fbc1ec451b811d6	0.1098444652089435
24	0xbfe6184b32b285c5	-0.6904655447180451

rnn.weight_hh_l0 f8 [25, 25]
0	0x3fd4935e94e6dd3d	0.3214947179908057
1	0xbfdd353d1dd1dbd8	-0.4563744345863916
2	0xbfd9ca5ca2deffa6	-0.4029761877572987
3	0x3fd9e66e2ea3e8a1	0.404689355418336
4	0x3fa25743831edc37	0.035822019344259486
5	0xbfb30ea4539c6765	-0.07444216767581009
6	0xbfd5aab55f7da602	-0.33854421925806844
7	0x3fcaab447fcad0a6	0.20835167159896634
8	0xbfbbd28c1e96d6e3	-0.1086814474755005
9	0x3fe2e90045b0d2ac	0.5909425126215715
10	0x3fb8ef42d0c70fda	0.09740083310231232
11	0xbfe529c1512fc6bd	-0.6613470636059088
12	0x3f7f269af1f84a93	0.007605176214854697
13	0x3fd1aec37a455c3b	0.2762917226841101
14	0x3fa806455ebc0736	0.046922843755977814
15	0xbfd130473ce916b4	-0.2685716719464424
16	0x3fd6169ecaf9a1b8	0.345130632608313
17	0xbfcc036d674ba062	-0.21885459464761242
18	0xbfbad4cd9f0ef466	-0.1048096192671025
19	0xbfac67229936884d	-0.05547435875202265
20	0x3fbee9faaa15e1bc	0.12075773861386713
21	0xbfcbf6a4883e0c81	-0.2184644379850376
22	0xbfe53b17184eda0f	-0.6634631609693445
23	0x3fd17f3befc6d69a	0.2733907548493818
24	0x3fd4489d8a57306c	0.3169320918066265
25	0xbfd83edb541035b0	-0.3788364716463901
26	0xbfcd124711f2cd53	-0.22712028862370434
27	0x3fd227e6ed4095c2	0.2836854283253524
28	0xbfd0410dcedc80bf	-0.2539705772524136
29	0xbfc17bf5b571da62	-0.13659545287710545
30	0x3fc46e3f90c0a1af	0.15961451118461187
31	0xbfbe6a40a0cb5915	-0.11880878377573752
32	0xbfb44acaa1534d72	-0.07926622809036646
33	0x3fd2b965b5ee4c04	0.29256575361904447
34	0xbfc161e02831187a	-0.13579942667474026
35	0x3fb78df91d095e7f	0.09201008757497141
36	0x3fce9c404ae6e651	0.23914340646097057
37	0x3fcd1e1261a43745	0.22748021857881376
38	0x3f81bf713626a3a2	0.008665928330474252
39	0x3fc07dd0c6548063	0.1288395851524938
40	0x3fc7107e97c26478	0.1801908722889356
41	0xbfd97cd29aa1f8fb	-0.39824357128954063
42	0x3fc25a92d7256b4d	0.1433890867727662
43	0x3fc6cb8e77ff095d	0.17808705195609323
44	0x3fc41695eb1c344f	0.15693925838459896
45	0xbfda36816429b8c7	-0.40957674771824454
46	0x3f8ca7a3aa53bdd0	0.013991621623488465
47	0x3fbe0f9f1f67525c	0.1174258662861773
48	0xbfd1aac8700015f1	-0.2760487645867605
49	0xbfd01e9ce61ec9a7	-0.251868462302037
50	0xbfc840567442344f	-0.18946343113603567
51	0x3fdb414a11a8d7ff	0.4258599445778372
52	0x3fd48cb4725b2f1d	0.3210879437217374
53	0xbfc490016d7fdb8e	-0.16064470144894155
54	0xbfcaf89c84c0b755	-0.21071201784200846
55	0x3fda907383a16d71	0.4150666032271238
56	0x3fc617ee7992425a	0.17260533271884776
57	0xbfa9c9335bd26f16	-0.05036316390871158
58	0x3fc3a6902c4c3e0d	0.15352060473422605
59	0xbfe0781a35002007	-0.5146609339872165
60	0xbfae6eea08f7b76b	-0.05943995818584721
61	0x3fdd379e046acb01	0.45651960784304896
62	0x3f7f1945ec37740d	0.0075924617153449005
63	0xbfd7aa5af9548d48	-0.36977266644153817
64	0xbfa762bf00ab9087	-0.04567524798565708
65	0xbfbaf7bb68e7b6e0	-0.10534259139214042
66	0xbfc5864b41727363	-0.16816082664163465
67	0x3fc54bf3b1cdb247	0.16638036901294326
68	0x3fb91a62297d9212	0.09805882943107516
69	0x3fb19b77618d9ad0	0.06877847797077696
70	0xbfd3bdae2fec694a	-0.3084521739962339
71	0x3fd9dfe44dc32986	0.40429027170161935
72	0x3fd25f762d030948	0.2870765151566457
73	0xbfd7d12a34dcbd23	-0.3721414104683893
74	0xbfc06e3de2def84d	-0.12836431100544346
75	0x3fc8a01cbe2038cd	0.19238623889436327
76	0xbfd563d25d976f5d	-0.33421763553427813
77	0xbfdf20662c3f35bc	-0.4863524849032179
78	0x3fb4c8a256f37bd3	0.08118643400983609
79	0xbfacc0221109a96d	-0.05615335901241534
80	0xbfa7b29e6c8c892c	-0.04628462863026281
81	0xbfa0cff2f0a5edfe	-0.03283652484511988
82	0xbfa7657d0adc1ac0	-0.045696170402199865
83	0xbfcef9a46505fb3b	-0.2419934743192814
84	0x3fe5da036bd8c177	0.682862959516611
85	0x3fd90875619d74cd	0.39114126713486713
86	0xbfdcc657ffff12a1	-0.4496059417690877
87	0xbfcbd6cc6bb4e746	-0.2174926305686375
88	0x3fde82c6006634fc	0.4767317775629889
89	0xbfc012c5d6f22edd	-0.1255729007283354
90	0xbfd1fa2cd4cabe06	-0.2808944776579384
91	0x3fe28a79b78439d1	0.5794037422472745
92	0xbfc1b44d56e387b3	-0.13831488363854091
93	0xbfc334bad2804c11	-0.1500466850125979
94	0x3fc2806a079e806c	0.1445438897326342
95	0x3fd29a43ed38d115	0.29066560903744804
96	0xbfb9b221937d5bcb	-0.10037431574652016
97	0xbfe009f99369ad10	-0.5012176398426238
98	0x3fc29291ddc4ac0f	0.14509795502212383
99	0x3fbe408cf936b6f4	0.11817246517486152
100	0x3fb9cabfed5122f0	0.10074996513243284
101	0x3fabe38359881a3e	0.054470162085682436
102	0xbfc6b21e2ffd92da	-0.1773107275322648
103	0x3fd2499851e6259c	0.28574188230467157
104	0x3fb1e04cf97dbd85	0.06982880679219335
105	0xbfbc05e8719a258a	-0.10946514867295867
106	0xbfa5a15a9b7e7e90	-0.04224665783044401
107	0xbfbe9976b1a283be	-0.1195291694334761
108	0xbfd0503fd1f1a8a1	-0.25489802839605075
109	0x3fca86ff76858864	0.20724480902851206
110	0x3fb993a2f405527a	0.09990900476015865
111	0xbfcf17a884e962ab	-0.24290949334933506
112	0xbfc1e4d6664bcd04	-0.1397960662357961
113	0x3fb9c3dde619a336	0.10064494006804811
114	0x3fbdeec63833df21	0.11692465660223351
115	0xbfd0361adef6eb52	-0.2533023049724551
116	0x3fae99c1635986e5	0.05976681077733107
117	0xbfc4d8f448c884cf	-0.16287091783400462
118	0x3fd200a37ac3d530	0.2812889765621831
119	0xbf71f5cfe8a38b38	-0.004384815352952036
120	0xbfa945550ee6060d	-0.04935708815447635
121	0xbfbad66ddd94e90a	-0.1048344293566609
122	0xbfa5b6a12febf2b9	-0.042408978557408834
123	0x3fb5edaac80a2aa2	0.08565776237279946
124	0xbf9b399474f9006b	-0.026586837424702397
125	0xbfc9bdd656372d44	-0.20110587320082562
126	0x3f9d09a0820fcd30	0.028357036531770408
127	0xbf9e342802b38dc1	-0.029495835461501366
128	0x3fb0589bab60d3ea	0.06385205205954461
129	0x3fb777a4917509c0	0.09166935492706951
130	0xbfb6ad61eaa020dc	-0.08858310678636222
131	0xbfd807b40056aa8e	-0.3754701617532782
132	0xbfddf862564da667	-0.46828516414698246
133	0x3fb9e83f9bc9e541	0.10120008042749352
134	0x3fb045b2115834b3	0.06356347011042622
135	0x3fab5fad491a728d	0.05346433179258723
136	0x3f9c7b17e9605059	0.027813314074663562
137	0xbfc2809c7fdb454a	-0.14454990618700442
138	0x3fb91709dc3eba50	0.09800778987003267
139	0x3fb18c84e1efa45c	0.06855040088670833
140	0xbfc6e4f8d7afd7be	-0.17886267215334145
141	0xbfc85c689a32be1e	-0.19032008675775186
142	0xbfd42eb224e27f19	-0.31535009004618214
143	0xbfd300d024f441ce	-0.2969246254806678
144	0x3fd78adc6e4098d3	0.36785040633038796
145	0xbf4233909a817a6b	-0.0005554634162868282
146	0x3fd276628bca4839	0.2884756436479879
147	0xbfc7c8ef737991cf	-0.18581956041738443
148	0x3fa4a4d098c0eeac	0.040319937369046016
149	0xbfd22c9ad7ca1b09	-0.2839724643057911
150	0x3fc42f1b157f286e	0.15768755483287883
151	0x3fb5072d59ba4b8a	0.08214076462381406
152	0x3fc3466e002fcaa2	0.15058684357753288
153	0x3fb0df84bea4b940	0.06591062216168542
154	0xbfd6d267b7c13aa5	-0.3565921110611419
155	0xbfdf491d0a8e8b29	-0.48883749037684027
156	0x3fdbf10f85268b18	0.4365881729410588
157	0x3ff4f7e55e37c520	1.3105214767823057
158	0x3fc0608983f3f998	0.127946080618085
159	0xbfb985dbdbbc87a5	-0.09969877352389618
160	0x3fe477a4363cb1e8	0.6396046695058972
161	0x3fa80d6c730adf1a	0.04697741417242991
162	0x3f84ffcc0eccced8	0.010253519250546558
163	0xbfb9d021ef8cec1e	-0.10083210085296954
164	0x3fd7eacab604e679	0.3737055566340142
165	0x3fa9becd58b2dfd2	0.05028382976291791
166	0x3fb8aaa4bcf8d862	0.0963538133008526
167	0xbfc9b6d347ea5ae1	-0.20089188586708587
168	0x3fc19d25763bc34a	0.13760822556607827
169	0xbfa7d80af7758740	-0.04657015105000406
170	0xbfc4488b4b871e44	-0.15846387088662273
171	0x3fdca5a21820da20	0.4476094470623213
172	0xbfc8d6aed5674825	-0.19405160350885456
173	0x3feacb09152fd2b3	0.8372846044354304
174	0x3fd773135177920d	0.36639864879387646
175	0xbfa3464bd3344564	-0.03764569237876961
176	0x3fdca1af28ff3709	0.44736842158896245
177	0x3fdcdcd16fb63acc	0.4509776678977857
178	0xbfd912e07a32ffc7	-0.3917771523811066
179	0x3fd2069e0cdb0dbe	0.2816538930457816
180	0x3fdac2f995de08c6	0.4181503261135159
181	0xbfe7db40fdaa7cb6	-0.745514388505305
182	0xbfe005fe49236d24	-0.50073160443154
183	0x3fd7573139dd2d1f	0.36469679499414726
184	0xbfdb3c6158bcec49	-0.42556031862085725
185	0xbfcbe9bf629bea7b	-0.2180709105958448
186	0x3fcf15d72d60be50	0.24285402026861158
187	0x3fa6ec213c57c0b7	0.04477027761083845
188	0xbfd44d2c0b0d4ad6	-0.317210207741636
189	0xbfaf8797702d8fa9	-0.06158135647163416
190	0xbfa15a59e0c6f4ad	-0.0338924490820117
191	0xbfd1b9d783f05cfa	-0.2769678867784503
192	0x3fcaf4f1f9cdf99b	0.21060013482560866
193	0xbfd6ad3d4cc7bade	-0.3543236970717042
194	0x3f9b10f9e6d0ee94	0.026431946480654903
195	0xbfdbd044248ecf2d	-0.43458655901052873
196	0x3fd354ab273cd2b3	0.3020427592448797
197	0x3fd283673b689795	0.28927021791093327
198	0x3fc47d582a655c40	0.16007520742525294
199	0xbfcd1b5fdac09f26	-0.22739790135641974
200	0xbfcb841d9b16186c	-0.2149693495995878
201	0x3fdc17f02235bf4d	0.43896106091323334
202	0x3fcfaf8ba6e1603a	0.2475447239728526
203	0xbfbb80fb675a298f	-0.10743685982939709
204	0xbfd509c230323a0b	-0.32872061449680307
205	0x3fd162d8739ac144	0.2716580513906772
206	0x3fc1bcde3132fe85	0.1385762920599413
207	0x3fc5c6739cf777c3	0.1701187626303505
208	0x3fd467c86415d1cd	0.3188343980212068
209	0xbfe1da21a40807a7	-0.5578773692834503
210	0xbfc37d644e3c7614	-0.15226415462613885
211	0x3fdf746094225c2e	0.491478104269336
212	0x3fd11b097070154d	0.2672751997018466
213	0xbfd8c110ed7d4b4b	-0.38678382103278314
214	0x3faa49dce2673436	0.051344778668501
215	0xbfa26499a2866ebe	-0.035923768128865316
216	0xbfcf9e2bb1822794	-0.24701448600199838
217	0x3fc3ea0fc7aaf506	0.15558049439815863
218	0x3fb001a5972797ab	0.06252512874888676
219	0xbfce62ad5b4e209d	-0.23738638838063233
220	0xbf76d4646d2f85e2	-0.0055736468229681
221	0x3fa1fcee27c76e20	0.03513283000549117
222	0x3fd860a36c629d9e	0.3808983381699934
223	0x3fc00b778a13a32a	0.12534994356180934
224	0xbfa181d0f0cc851d	-0.034193543810270045
225	0x3fd947d6755aacc1	0.39500962696429204
226	0xbfd20aa699c23095	-0.28190007224544306
227	0xbfe5b64e1aa72a90	-0.6785040398184083
228	0x3fcca10e996209c8	0.22366507043268613
229	0x3fae15d6c162c371	0.05876036749521674
230	0xbf83e11c7d398f0c	-0.009706709453162009
231	0x3f905480a479e8b4	0.0159473514927206
232	0xbfc41647409f8fb6	-0.15692988067087094
233	0xbfc6190b884dd87e	-0.17263931422684559
234	0x3fd7d0016e6ad8b0	0.3720706537527674
235	0xbfb2b6179449b8e9	-0.07309100504219014
236	0xbfe54c230dfeebdb	-0.6655440591197207
237	0x3f71a26e8a2a6e20	0.004305297656766821
238	0x3fe151f38345c2f3	0.5412538112560398
239	0x3fc2748953951f3a	0.1441814096563066
240	0x3f8118ded0063b42	0.008348217700385189
241	0x3fd36a40f42bc7c7	0.3033602127535428
242	0x3f843d5ecddcb954	0.009882679612556323
243	0xbf8d67668be55ecd	-0.014357377189909393
244	0x3fc90097d22b0936	0.1953305984698745
245	0x3fd945eecd538320	0.3948933606280196
246	0xbfad8b7e63a8144a	-0.057704877534015056
247	0xbfc559e5c6dffb35	-0.1668059559887866
248	0x3fcb7ce67dbb1ff7	0.21474915637213574
249	0x3fcf1aaae7507bf9	0.24300133032463103
250	0xbfdfe6eb30c5d185	-0.4984691597267317
251	0x3fd31aafdaa2ef84	0.29850384093492033
252	0x3fe7e0475c21fa3b	0.7461277770488047
253	0xbfe58277cfaa767e	-0.6721762710546526
254	0xbfb116f143f9e229	-0.06675632390568666
255	0x3fc017a8c08ba8df	0.12572202111852612

rnn.bias_ih_l0 f8 [25]
0	0xbfeea74594f5f04e	-0.9579189214123376
1	0x3fe3f0522d16e217	0.6230860596325013
2	0x3fe8993c35e65f15	0.7687054684383577
3	0xbfe70a59fdbcd345	-0.7200136142551875
4	0xc0027d353dd13dce	-2.3111367063026824
5	0xbfea2f832bbc5000	-0.8182998518191198
6	0x3fea7e2042bb48ef	0.8278962424613193
7	0x3feb2dac95c404ec	0.8493254590140658
8	0x3feb2d572ea004b8	0.8492847357412279
9	0xbfe12d3e03acdb6b	-0.536772734811945
10	0xbfeee0cd9d7d8710	-0.9649417949660535
11	0x3fedae8ae0d68368	0.9275564566961352
12	0x40017404856a4a9a	2.181649248415238
13	0xbfe55d26d72ea5c5	-0.6676210596826243
14	0xc006422150a24ee6	-2.782290105775121
15	0x400453b3fd6a8bdf	2.540870647253072
16	0xbfb4e0a87ad4cbd2	-0.08155301092919778
17	0x4003fbfdc5ba5b49	2.4980426261421695
18	0x4002a152352222c6	2.328770079712146
19	0xc003ddc506d7ca2b	-2.483285954914455
20	0xbfe08e8f1f767ccf	-0.517402230692733
21	0xc0008845ba9e1e52	-2.0665392474655073
22	0x3fe4e2eb77d98492	0.6527001705946012
23	0xbfc0dfe4e995c852	-0.1318327084114253
24	0xbfeb35f73f11e093	-0.8503376228172946

rnn.bias_hh_l0 f8 [25]
0	0xbfeee7e8bcf5f04c	-0.9658092203749304
1	0x3fdbea131c2dc455	0.4361617827590341
2	0x3fefdac7a9e65f29	0.9954565351826875
3	0xbfe5beb1f1bcd347	-0.6795282098233678
4	0xc001e2c53d513dbf	-2.2357277670305105
5	0xbfef0ba563bc500b	-0.9701716373406283
6	0x3fe34b1b1ebb48d6	0.6029182052828002
7	0x3ff33156eae20272	1.1995457816230126
8	0x3ff2298bb1500259	1.13514298689565
9	0xbfd5a1ddaf59b686	-0.33800451397005593
10	0xbfe2bb02457d86f5	-0.5853282315476621
11	0x3fe5611f98d6836b	0.668105886947257
12	0x4002736f01ca4a9d	2.306364072786279
13	0xbfe9e552f3aea5d7	-0.809243656102974
14	0xc003829b26a24ed6	-2.4387724893839318
15	0x4003330dc36a8bde	2.39992859524635
16	0xbfc7d8e6056a65ec	-0.1863067175334402
17	0x4004aaae7cba5b51	2.5833406204577973
18	0x40033ffcf22222d8	2.4062441746394647
19	0xc0055a6f0dd7ca2e	-2.6691571313360987
20	0xbfe8a71a37767c8d	-0.7703982432611994
21	0xc001fe9bb11e1e36	-2.249320396167401
22	0x3fe27cf829598485	0.5777550513850122
23	0xbfb54f7ea32b9034	-0.0832442425121947
24	0xbfe80984b311e09c	-0.7511619088609396

V.weight f8 [1, 25]
0	0xbff9d7a68ea476cd	-1.615149075696013
1	0x3ffe882572e97359	1.908238839029954
2	0x3ffd3714d50a7670	1.8259476015004132
3	0xbff91cd1baeb124a	-1.5695359517568641
4	0x40017a796ad36e06	2.18480189759953
5	0x3ffb8c98c109035b	1.7218253651082793
6	0x400008f819d1d4c7	2.004379464832343
7	0xbffc716b20bbb9a6	-1.777690055717906
8	0x3ffccd22ac4caef1	1.800081894917579
9	0xbffd95a0792b6ece	-1.849029992407782
10	0xc00128b4b67b8691	-2.1448759323546445
11	0x3ffcc05020f74457	1.7969514167528098
12	0xc0019697fff7f354	-2.1985321042579162
13	0xbffcc062fb0f6683	-1.7969693953549786
14	0x3ffed7768b30fd03	1.9276032864725614
15	0xbfffefd4ba35b41b	-1.996052482015563
16	0xbffa7271c634f30f	-1.6529405348257489
17	0xbfffd119bfd89a7e	-1.9885499471653527
18	0xc0016add6e8da93c	-2.177180160234597
19	0x3fffed9ff846bdbd	1.995513887242722
20	0xbffc90c5b3317c23	-1.7853447913873957
21	0x3ffb1c50abe70239	1.6944128718315723
22	0x3ffba3bf41faa446	1.7274773194606197
23	0xbffb3062d5e21522	-1.6993130068597755
24	0xbfffb7be215f9023	-1.9823590568203222

V.bias f8 [1]
0	0x3ffa2c8388be2815	1.635867628242072

exp_avg f8 [25, 1]
0	0xbee8381fcadf80e9	-1.1548631245917158e-05
1	0xbfa60260de1c60ac	-0.042986895669117814
2	0x3f5b2b0d4f7aaffd	0.0016582136139886565
3	0x3f808f52e9b7ac60	0.008085868604174873
4	0xbf4817822adf8183	-0.0007352243026126779
5	0xbfc4df3fabfbe982	-0.16306301019342234
6	0xbfeeec553fac14f1	-0.9663492435071516
7	0xbfd38f4fcdabed60	-0.3056220539580945
8	0xbf7448575d7a05ef	-0.004951802511301547
9	0xbf90f72a9ea547ab	-0.01656786530777025
10	0x3fb2f83d8ac4def2	0.07410034788051315
11	0x3f762dd1e25c4f9d	0.005414790973890774
12	0x3f693cee9c1ad4e9	0.0030808124873496945
13	0x3f5024528b43d530	0.0009852224439417905
14	0xbf7e428c4934e168	-0.007387683860820317
15	0x3f71b6cfdb9f9546	0.004324733681618403
16	0x3f9d7324655af6e1	0.02875954502700651
17	0x3f71212674a70db6	0.00418200513599081
18	0x3f4dd11e2dfced5d	0.0009099385606314115
19	0xbf7b31df9cc741dc	-0.006639359937665703
20	0x3fa76dcacfffd4c3	0.0457595232873387
21	0x3f5c8bc1dc657a75	0.0017423051045494496
22	0xbf5af2bf5528d434	-0.0016447895510627421
23	0xbfc948d5495f65f5	-0.19753519137047673
24	0x3fc3c4bf335b025a	0.1544417382010746

exp_avg_sq f8 [25, 1]
0	0x3f48f5155363334f	0.0007616380815079568
1	0x3fa88d69494c3b41	0.047953882405741506
2	0x3f6973dd4afb8203	0.003107006275840486
3	0x3f860f71b47d43eb	0.010771644898030138
4	0x3f6ed2a1ee16f3a8	0.0037625467964219235
5	0x3fe1beea8e5d5cd0	0.5545552044449327
6	0x4052704f34fba25b	73.75483440946248
7	0x4022dc90a63df87b	9.430791087212347
8	0x3f571a94b445b384	0.001410145968374383
9	0x3faaf37ccc044b3b	0.0526389121097481
10	0x3f73edf1cb56adfc	0.004865593441916168
11	0x3f6ae6f905483023	0.0032839645084603727
12	0x3f70b9d2ceb82a3e	0.004083465067660939
13	0x3f775c25b619c463	0.005703112897763682
14	0x3f6d37c601c85ad9	0.0035666339229111052
15	0x3f69ea1eed34643e	0.0031633953127650207
16	0x3fc94b8467fe51f2	0.19761710241131386
17	0x3f6ca250646f36e7	0.0034953661119975113
18	0x3f6c31382d1708b9	0.0034414384069530704
19	0x3f6ce3c6ba4351bc	0.003526580943893102
20	0x3fa0ca0fd9ce1821	0.03279161008599397
21	0x3f2b9b718c6a2b68	0.00021062623109843336
22	0x3f8e5499306bb4ec	0.014809796133216278
23	0x402c9f1a44dd4326	14.310747291574057
24	0x3f94cd6d54601a87	0.020314892077318205

exp_avg f8 [25, 25]
0	0xbe979dcf7c99a24e	-3.519124872398763e-07
1	0x3e9621ef2d1be791	3.2980078144806606e-07
2	0x3e977b2388f82c7c	3.498943294827839e-07
3	0xbe96fe43e1a33896	-3.42625726579355e-07
4	0x3e600aa2d188f7af	2.987970954382628e-08
5	0x3e681054295d00a9	4.48222909192099e-08
6	0xbe5b141dd3b4a01f	-2.521889295756631e-08
7	0x3e856fe570ac8286	1.5971880203918448e-07
8	0x3e97a42faad835a5	3.522836021515095e-07
9	0xbe958703eaa4a0cb	-3.2078330982006387e-07
10	0xbe9351fbabee4bd9	-2.8789410671489865e-07
11	0x3e974fb2586610fe	3.473656636987037e-07
12	0xbe5ff65d45355fb3	-2.9767268050955948e-08
13	0xbe9724624f445df4	-3.448445362748652e-07
14	0x3e601abbc94b7521	2.999683449353485e-08
15	0xbe602b32f68c35cf	-3.01166370228696e-08
16	0xbe91d1d710b3786b	-2.6553404160006283e-07
17	0xbe6025958a31633b	-3.0075782996621435e-08
18	0xbe6027abb2f06745	-3.009096471318926e-08
19	0x3e602550ef30c855	3.007383311166088e-08
20	0xbe96c0b9e72f6d84	-3.3904368662375435e-07
21	0x3e7a6f03bda84b10	9.847302299301649e-08
22	0x3e96a91b3bcffbad	3.376688331723745e-07
23	0xbe3c574a09aa5b9f	-6.598647096310036e-09
24	0xbe933dab5011a528	-2.8671168201282023e-07
25	0x3f31efc33b4ff859	0.00027369038008362917
26	0xbf30e67153606513	-0.0002578760789915962
27	0xbf31d583f6f9d3f5	-0.0002721259288372407
28	0x3f317c8da086bd1c	0.00026682336513324397
29	0xbf1759920a3b7c62	-8.907274110069163e-05
30	0xbf1bd9380e9e22ef	-0.00010623364110363594
31	0x3f05bdd9353db812	4.146880260590137e-05
32	0xbf04c1429141101d	-3.9586872077751664e-05
33	0xbf31eefb4ca7e36f	-0.0002736438297286569
34	0x3f30970836842c63	0.0002531428385885213
35	0x3f2f55386849ae37	0.0002390509945543338
36	0xbf31bd31fa3f677b	-0.00027067632822552035
37	0x3f1753bc4579ec12	8.898579232578832e-05
38	0x3f31a05e17710221	0.0002689580646269303
39	0xbf175fb413f36b5b	-8.91641293380546e-05
40	0x3f1764655cf7ae89	8.923405334087578e-05
41	0x3f2c444ac05dcde2	0.00021565830700929963
42	0x3f1762ed3c2a6fae	8.921215980212005e-05
43	0x3f176236b144d96e	8.920153442635244e-05
44	0xbf1762ff1b86a01d	-8.921320011856565e-05
45	0x3f3149a826dc6514	0.0002637897040230358
46	0xbf20b0172bb0ad73	-0.00012731821866061483
47	0xbf314d71fbfeae70	-0.0002640155107609182
48	0xbf14180c2c3bb582	-7.665228173055728e-05
49	0x3f2f477e977f9b87	0.00023864193258235305
50	0x3ee2d0a07e99f557	8.971666790142758e-06
51	0xbee00de7bd111245	-7.655295037997263e-06
52	0xbee28f32cd72cf99	-8.849796741073993e-06
53	0x3ee1a3e127cdaf3f	8.411481070523203e-06
54	0x3edd471bfe177359	6.980364533029669e-06
55	0x3eda574b734d818a	6.280182607593444e-06
56	0xbedadfc17ece6f6e	-6.407271922716799e-06
57	0xbedf5c1e5870a12e	-7.4767680251846884e-06
58	0xbee2dcba5d750462	-8.994206764813786e-06
59	0x3eddc303ce8251b0	7.095760544601986e-06
60	0x3ee1e44614f5d89f	8.531424696239373e-06
61	0xbee23da203554f54	-8.697869001629263e-06
62	0xbedd4d82fe2ae515	-6.9863271813738665e-06
63	0x3ee1ebe199cc4eb3	8.545594761189814e-06
64	0x3edd48627ca789a5	6.981552312686916e-06
65	0xbedd3e9d78c0ce5d	-6.97245367224964e-06
66	0x3ecfa2f4f3d97780	3.7713706706873017e-06
67	0xbedd438c7e1f4819	-6.977048515781716e-06
68	0xbedd3cbcdc185b95	-6.970705216178138e-06
69	0x3edd42afa23f943c	6.976245035848985e-06
70	0x3ee12f7f469edbe7	8.194702065240533e-06
71	0x3ed9d80ae42b64ee	6.161669775927817e-06
72	0xbee104263ccebb16	-8.113960484693684e-06
73	0x3e810ae2eb0a9c11	1.269767060569666e-07
74	0x3ee1e8a4e66104b7	8.53956516888781e-06
75	0xbeb97c25aa21a003	-1.5190213749297777e-06
76	0x3eb86bb56b680832	1.4555893536054578e-06
77	0x3eb9617ec62d6298	1.512815992218768e-06
78	0xbeb906306d08346f	-1.4915571463520297e-06
79	0x3eaa9989687836e9	7.927344122819375e-07
80	0x3eac01fe00a9ad10	8.346969491817848e-07
81	0xbea34ff241665253	-5.755511008226465e-07
82	0x3e886ab58d8f1ad0	1.81919580537039e-07
83	0x3eb97ab0b2d10ee1	1.5186821642623488e-06
84	0xbeb8224a7252b374	-1.438495425258604e-06
85	0xbeb6d4146196ee14	-1.3606808181150508e-06
86	0x3eb94961cdeb1133	1.5072017089260867e-06
87	0xbeaa96b394e87a32	-7.924043446438748e-07
88	0xbeb92c549983c232	-1.5004376106541952e-06
89	0x3eaa9e54aa3f0cac	7.932925041243648e-07
90	0xbeaa9fecea154b87	-7.934781544406343e-07
91	0xbeb5a01c676d4116	-1.288976276565188e-06
92	0xbeaa9fce672ce68a	-7.934642794811579e-07
93	0xbeaa9e0d1579ddbd	-7.932599527934054e-07
94	0x3eaa9fa1d5aeeaa4	7.934440121517878e-07
95	0xbeb8d24b613084ad	-1.4794744671658736e-06
96	0x3eb027d63054f5f3	9.62949515084254e-07
97	0x3eb8d70d0acb7abe	1.4805819247770616e-06
98	0x3ea0af740794a89f	4.972626036815661e-07
99	0xbeb6c666833356ee	-1.3574958870796123e-06
100	0x3f34cd3b5cd0f6e5	0.000317408554852834
101	0xbf3071e2d145d671	-0.0002509287599175908
102	0xbf345fc6834e082e	-0.0003108844423921367
103	0x3f32ea07f4975476	0.0002886075422712861
104	0x3f358e5d77c46bde	0.00032892019204816363
105	0x3f332d04fa590af7	0.0002926003602149863
106	0xbf325cf9aaabba09	-0.00028019996049880085
107	0xbf3258adf7b7e834	-0.0002799439168651469
108	0xbf34d5954591e6b8	-0.0003179063256265424
109	0x3f2d7c383338b086	0.00022495447193316228
110	0x3f404343bf493d36	0.0004962998196535232
111	0xbf33eae40bd48b75	-0.00030391757521124686
112	0xbf35893e5da73064	-0.00032861492732361706
113	0x3f336b3b6697d1f3	0.00029630851949427535
114	0x3f35a7d9adfc2e9f	0.0003304392284781774
115	0xbf35a132a6d1e2f1	-0.0003300427113753077
116	0x3f0e38ef9189be3b	5.764466385904358e-05
117	0xbf35a498b23b9b21	-0.0003302452844153193
118	0xbf359a145d15fe38	-0.0003296184268819255
119	0x3f35a71a40b814bb	0.00033039465844837316
120	0x3f32289cde393d44	0.00027707891260760433
121	0x3f40432185b6154e	0.0004962838824417533
122	0xbf3201f192bec5f9	-0.00027477405341888545
123	0xbf288871b3fb4b42	-0.0001871718213722566
124	0x3f40443285d07430	0.0004964110081605629
125	0x3f44eaf8d14d9d37	0.000638362400974402
126	0xbf44787bf4a9f65c	-0.0006247143986255021
127	0xbf44dffede863e1c	-0.0006370539168062991
128	0x3f44babcee51327c	0.000632612468174878
129	0xbf3ac6346ae03fdc	-0.0004085424396871298
130	0xbf3cedb5b86f1b21	-0.00044141470465002176
131	0x3f42feca0e08d80d	0.0005796896549046263
132	0xbf42ab88f1b8d93a	-0.0005697649643881316
133	0xbf44ea53dcc2b263	-0.0006382855877028023
134	0x3f445d3b04bee449	0.0006214655090764988
135	0x3f4223275ca93b48	0.0005535070607239701
136	0xbf44d622c6fa6cd7	-0.0006358785448869153
137	0x3f3ace38e647116a	0.00040902032040104083
138	0x3f44ca42b4e627a6	0.0006344629016876615
139	0xbf3aebc9ad2ccda0	-0.00041078256360834765
140	0x3f3ad5b52946246d	0.0004094664848471378
141	0x3f4351cca0d9b373	0.0005895852243163871
142	0x3f3ad67c8ee6e781	0.00040951291057533123
143	0x3f3ac62f131b887a	0.00040854119570899567
144	0xbf3ae875b90bba37	-0.00041058420269638206
145	0x3f44a63f19102bce	0.0006301696868161678
146	0xbf40f422f65faec4	-0.0005173845972854187
147	0xbf44a6b652e064c1	-0.000630225205671263
148	0xbed645555f135455	-5.309780577185642e-06
149	0x3f43bb44e504f8d2	0.0006021582030724343
150	0x3f965af2b249b5c7	0.021831314212638533
151	0xbf964cf971754a9a	-0.02177800898545943
152	0xbf9657023ddeb527	-0.02181628706573693
153	0x3f965acf8594c570	0.02183079006971894
154	0xbf94c1ce1435adac	-0.020270557387829832
155	0xbf9048d5e4b27121	-0.01590284546237897
156	0x3fa19a6d6b50c37f	0.03438131270411925
157	0x3fa0b880cceab2e6	0.032657647146469945
158	0xbf9658eeeb16d4e0	-0.021823628519730742
159	0x3f964b68f1b604d3	0.02177204108511861
160	0x3f965245bb1bd1bb	0.021798219247061584
161	0xbf965865b5a7b860	-0.021821583950377366
162	0x3f94c18ee73aa112	0.020269615996455555
163	0x3f96578078afcaaa	0.021818168035631892
164	0xbf94c4e711e12053	-0.0202823738730163
165	0x3f94c415547a524b	0.020279248505703767
166	0x3f966c894650ec02	0.021898407856706832
167	0x3f94c48d23daaf1f	0.020281033814781965
168	0x3f94c33209a90b99	0.020275861587161968
169	0xbf94c4bec3e250f3	-0.020281773286641557
170	0x3f96534d263631e9	0.021802144486672424
171	0xbf94cab3ccc1bdcc	-0.020304498073924468
172	0xbf9660ee3881cc35	-0.021854135703005723
173	0xbf99c7e78fad958b	-0.02517663778725913
174	0x3f9651f8041fb414	0.02179706120653087
175	0x3f61c6816a30edf3	0.0021698501236906364
176	0xbf62b7018270cd5b	-0.0022845296366768414
177	0xbf619c4ec6234b72	-0.002149728637144071
178	0x3f62121bbe5ac87d	0.0022059003702788447
179	0xbf59a4b831a5f02b	-0.00156515109719547
180	0xbf697fae7ec20f69	-0.003112641154133945
181	0xbf9522e71fa273dc	-0.020640956216641956
182	0x3fa963d5c235ef40	0.049589805562361366
183	0xbf616af8f465039e	-0.0021262037654711926
184	0x3f644653f2affdfb	0.002474941216405344
185	0xbf327304ca40df94	-0.00028151385254515074
186	0xbf621e04037dcbbd	-0.0022115782157298967
187	0x3f59a450a44ba74a	0.0015650546567322504
188	0x3f62495705281399	0.0022322368251956434
189	0xbf59ab35c70f50ae	-0.0015666985675482459
190	0x3f59a883501cb788	0.0015660555222427337
191	0x3f6b363e797b56cb	0.0033217640119385986
192	0x3f59a96091b22c68	0.0015662615831242514
193	0x3f59a74d3e13cd96	0.001565766746634311
194	0xbf59aa9b3b1511fd	-0.0015665546346365071
195	0x3f615de03b628378	0.002119958832807741
196	0xbf702943282c047f	-0.003945600826001371
197	0xbf63519cbc964056	-0.0023582516921081638
198	0x3f64c0e3ae157aa3	0.0025333830714509716
199	0xbf323c8c37b9c6da	-0.00027826712878385523
200	0x3ed95325234590d2	6.037899357689597e-06
201	0xbed8d49877acb83c	-5.920040957714238e-06
202	0xbed945c9cd53e837	-6.025459886810752e-06
203	0x3ed91c4b8c5caf10	5.9868163527034744e-06
204	0xbed570f9d05e412c	-5.112007107302673e-06
205	0xbed86c3966e52aa6	-5.822837563516458e-06
206	0x3ed7270abce89b8f	5.519987964087017e-06
207	0x3ea2bbaee0f67572	5.5829099381329e-07
208	0xbed94f084f593e55	-6.034069192375673e-06
209	0x3ed8c9445ad04583	5.90949040903241e-06
210	0x3ed8787d26ea988b	5.83425990777741e-06
211	0xbed93eb10ecc2b94	-6.018850609699768e-06
212	0x3ed570ba787c679b	5.11177666575628e-06
213	0x3ed9329db9274fa3	6.0076044001328755e-06
214	0xbed56ee01d5273b2	-5.110050968285092e-06
215	0x3ed56ff596127216	5.1110604043750145e-06
216	0x3ed7c295ca3c86c5	5.664848831606142e-06
217	0x3ed56f76a2141c19	5.110598551689147e-06
218	0x3ed57074c293e8ed	5.1115230601478304e-06
219	0xbed56f46a288bfe0	-5.110423935181214e-06
220	0x3ed8ffa0a807ba5c	5.960117619426162e-06
221	0xbed65c742d8a0ba8	-5.33131306979215e-06
222	0xbed90f2a9666768f	-5.9745892485842455e-06
223	0xbecf74a400c813b4	-3.7498030052173494e-06
224	0x3ed8757ebeda656a	5.831471737183022e-06
225	0xbed9c2c22b08a69a	-6.141847436450009e-06
226	0x3ed814f9818f87a0	5.741580047820537e-06
227	0x3ed99768eaaba93b	6.1014758709710435e-06
228	0xbed90771f391e743	-5.967398288503532e-06
229	0x3eb7f4f814c2359a	1.4279431353210384e-06
230	0x3eba1e915b9fc924	1.5568378857159463e-06
231	0xbe7f5f944c47d693	-1.1687486096270525e-07
232	0x3ea6507457e831e3	6.650172251223751e-07
233	0x3ed9c11f40d0aa48	6.140323432860815e-06
234	0xbed790f5760c6e73	-5.618630752459244e-06
235	0xbed6307a714c0861	-5.29035766727763e-06
236	0x3ed970523f414ce6	6.065071819066924e-06
237	0xbeb7ec7efe909031	-1.4259703624642135e-06
238	0xbed9416286fff19b	-6.021358885274429e-06
239	0x3eb7fcc388448980	1.429757987621809e-06
240	0xbeb80512a43bd014	-1.431692582207389e-06
241	0xbed39c37f55e93cb	-4.675442900313593e-06
242	0xbeb801fdf4b991dc	-1.4309752768500128e-06
243	0xbeb80338494659dd	-1.431261158568051e-06
244	0x3eb80244b0e4ec51	1.4310396099909571e-06
245	0xbed8b2dcb66333b1	-5.888624263938986e-06
246	0x3ec3dec897cb870f	2.368718183696427e-06
247	0x3ed8bc8dd3fb3f8d	5.897650509914434e-06
248	0x3ebba745145e45b2	1.6482709539227293e-06
249	0xbed624637a75aa71	-5.279098253078473e-06
250	0xbf825e2db51697e5	-0.008968693817973114
251	0x3f7e8ad021741c7a	0.007456601152859505
252	0x3f82106886479234	0.008820358846557054
253	0xbf81070f0c9efec2	-0.008314244816460262
254	0xbf83274411739562	-0.009352237494065722
255	0xbf8198d829f1652c	-0.008592308788296942

exp_avg_sq f8 [25, 25]
0	0x3dd4ab2dd4ef81dd	7.519217647298188e-11
1	0x3dc626e572ecf7d6	4.0294141604678324e-11
2	0x3db216a0e9cde4a0	1.6451297453450432e-11
3	0x3dc3497237c92196	3.508266504839065e-11
4	0x3da2dfd33106f9d4	8.583045326642597e-12
5	0x3dc2269ed48eb990	3.301622392989391e-11
6	0x3dc3c16fa15cd049	3.593524451124467e-11
7	0x3d929fa0d00406d6	4.23450445736163e-12
8	0x3dd417a9383e6a75	7.30958193807746e-11
9	0x3dad9e43be163c89	1.3468807614538957e-11
10	0x3da8fc36807865f9	1.1361956527269434e-11
11	0x3d9e07f61b144a7a	6.828281363177469e-12
12	0x3da7d53efa31318b	1.0837990070075116e-11
13	0x3dc0d146c1231403	3.059082860472352e-11
14	0x3dc1a77e1d5ad4ae	3.211292661418113e-11
15	0x3da3f2a970025c2d	9.071253731063403e-12
16	0x3dba7444661d9461	2.4059926258102728e-11
17	0x3da02ef0b581e602	7.359340283101141e-12
18	0x3d980da07d9ac1a2	5.4690713438646126e-12
19	0x3da16bee7d71c43d	7.922430003812138e-12
20	0x3dd2aafbf8097508	6.79134509126325e-11
21	0x3ddbdbd79601f86e	1.013495723993544e-10
22	0x3da69e285bd271df	1.028538614472526e-11
23	0x3dd264aa1932f46d	6.69141463590516e-11
24	0x3dccc88d8f0b9a5c	5.23567178159711e-11
25	0x3edeae693eea312e	7.314990382877979e-06
26	0x3ed36bed5b30a4c3	4.630468015278866e-06
27	0x3ede8afcc287ad14	7.281999423440549e-06
28	0x3ede822ead5cdc14	7.273799118404627e-06
29	0x3edd9e11a2029a64	7.061351908677243e-06
30	0x3edcfc82cac6d6fd	6.910889322522251e-06
31	0x3edada03150f16c3	6.4019225911087725e-06
32	0x3eda99a60f53f6a4	6.341979532862498e-06
33	0x3edead0228e91809	7.313684035786466e-06
34	0x3ede1d83a871fb2b	7.1800446966852685e-06
35	0x3edd4c3a8cc9845d	6.9851323130930034e-06
36	0x3ede7d03344a15d6	7.268984351887236e-06
37	0x3edd7902597129ac	7.0268373724792655e-06
38	0x3ede6ee835939a6f	7.2558476287067495e-06
39	0x3eddfd86b7894d58	7.150253502691391e-06
40	0x3edddcb1e45f19ec	7.119676927963628e-06
41	0x3eddba9e64502e37	7.087941019011697e-06
42	0x3edde83e50ad227b	7.130432332421426e-06
43	0x3eddb8ac355cbe5c	7.086128638352984e-06
44	0x3eddf3de86d5a492	7.141259726986141e-06
45	0x3ede759247141213	7.262054269267548e-06
46	0x3eddb8e4b13b5866	7.086334125458188e-06
47	0x3ede64d1ef774883	7.246453371094932e-06
48	0x3edb727d0710bd9c	6.543927257004515e-06
49	0x3edd6a2682d7dceb	7.012999089443137e-06
50	0x3e0fb2d2e949a040	9.225486646967399e-10
51	0x3e02c09e6692012a	5.457671650900731e-10
52	0x3dfea31413c27302	4.4582739215610847e-10
53	0x3e03aede8fae0988	5.728531254908675e-10
54	0x3dffea95d95b4c6d	4.6444400526576393e-10
55	0x3e029d7fce3c4848	5.417745388346765e-10
56	0x3e079e9cacbe894e	6.874201984451895e-10
57	0x3df108a9b5d24d00	2.478749894763566e-10
58	0x3e0fc1daa83eeaf8	9.242574071466559e-10
59	0x3e00d3c8dbc3e781	4.897384091409107e-10
60	0x3e0358d898156f11	5.6307340748998e-10
61	0x3df9ccaef9c23411	3.754327905490925e-10
62	0x3dfb07c621113631	3.933436086109586e-10
63	0x3e063d890956c457	6.472800235713765e-10
64	0x3e05924185eff6ee	6.278078160416894e-10
65	0x3e01952eeba6f00d	5.117252934798776e-10
66	0x3e03be0b87a75202	5.745783981478318e-10
67	0x3e00d0a22e07e80a	4.893801718566869e-10
68	0x3df476cdd59eb8e9	2.977915324227443e-10
69	0x3e031a9e037b76b1	5.559988085946513e-10
70	0x3e0d07e90efd0f5e	8.449103898961539e-10
71	0x3e10b2a384a3f8b5	9.71940322116011e-10
72	0x3e0089c8a1e9fa60	4.813254827935471e-10
73	0x3e092153641f560d	7.31384460152263e-10
74	0x3e0b342e3a115b3a	7.9173566672856e-10
75	0x3e04ed6c70ad293f	6.090685467717756e-10
76	0x3df199a78fa8deb9	2.5611680802184497e-10
77	0x3de1371315c94c49	1.2525659233184756e-10
78	0x3dfef02f9fa6fb37	4.5021045195030197e-10
79	0x3ddb25ac31121b8c	9.876078797446953e-11
80	0x3def8b5abf53e471	2.2951537863289913e-10
81	0x3dee89eb180eb87e	2.2219860329182546e-10
82	0x3dd104a97a65a60d	6.191189106461076e-11
83	0x3e02df351455edce	5.492446850379957e-10
84	0x3dde821f3e373474	1.1098850966228312e-10
85	0x3ddf1be443d66750	1.1317370734955028e-10
86	0x3ddf22a08cc73010	1.1326942439073638e-10
87	0x3ddc853aa6a3fb20	1.0375670605687064e-10
88	0x3de549e8583f97bc	1.5489569013208946e-10
89	0x3dffea80161dfbfd	4.64439172985781e-10
90	0x3deb82f67842111b	2.0017304144893662e-10
91	0x3de5d978948f9230	1.5897600794853254e-10
92	0x3de563c1e46b6e18	1.5563038549706893e-10
93	0x3de81c9ff2d9ad38	1.7543654847007394e-10
94	0x3dead313347661ad	1.9517401083428243e-10
95	0x3e02f504791d9464	5.517242099218221e-10
96	0x3e0f35d6b71d740e	9.083394993028781e-10
97	0x3df2951749684b36	2.70409314217545e-10
98	0x3dfe16b9a594d818	4.378492339368447e-10
99	0x3dfa28827eb10034	3.806525083778917e-10
100	0x3ea0db6596248d1e	5.023783098728143e-07
101	0x3e9beb314b2e1da7	4.160213606320262e-07
102	0x3ea090d943dbdc82	4.936997652628489e-07
103	0x3ea00ec2b6d560a5	4.785555184723228e-07
104	0x3ea0ec7c0753c9b1	5.043675758416845e-07
105	0x3e9f9c0873927a7f	4.7101831374989946e-07
106	0x3e9f4640a5860d01	4.660252322029698e-07
107	0x3e9e63d8ad3e799d	4.528466608313792e-07
108	0x3ea0e46c35f3e9fb	5.034290601329676e-07
109	0x3e9cd9cfa153e081	4.299107854845058e-07
110	0x3ea09f4d2f349ad1	4.953822937734161e-07
111	0x3ea054d638b619e7	4.86713461909241e-07
112	0x3ea0e3d87bad07a4	5.033618813781577e-07
113	0x3ea02532c51083b4	4.811676125351554e-07
114	0x3ea11d6256e38935	5.100602445097244e-07
115	0x3ea109998adfc036	5.077570415217754e-07
116	0x3e97ffb9ebdc22e4	3.576119346070671e-07
117	0x3ea10df6bdf7be8c	5.082650850734028e-07
118	0x3ea0f76d4a2cb676	5.056414419162876e-07
119	0x3ea11243eee3adac	5.087658488089786e-07
120	0x3e9fb84a03dd9f62	4.726630357027812e-07
121	0x3ea0c80fee60beff	5.001274672230138e-07
122	0x3e9f419a628e5776	4.657545980500029e-07
123	0x3e970b909bc53963	3.433998718897219e-07
124	0x3ea0a8bd1b422c26	4.964809279401659e-07
125	0x3ec33cf4b1d46aca	2.2933612756741757e-06
126	0x3ec27e4efb716648	2.2045842018980504e-06
127	0x3ec321f4ed0da467	2.280788841725395e-06
128	0x3ec2f048272070f4	2.257657166117067e-06
129	0x3ec14a1946f3c63c	2.061062836505155e-06
130	0x3ebf78542bdf2f02	1.8757602186945058e-06
131	0x3eb94d261df02359	1.508078746106063e-06
132	0x3ec92f3f87493aa5	3.002233876870627e-06
133	0x3ec339862e2a5680	2.291763267446231e-06
134	0x3ec272a3d3149c8c	2.1991505937571796e-06
135	0x3ec0c0c807593c87	1.9971194500710952e-06
136	0x3ec315bf45dd0225	2.275103311883086e-06
137	0x3ec143ac4c7de8ce	2.0580706382974765e-06
138	0x3ec3058a5364683c	2.267556420976401e-06
139	0x3ec1434ae7e5997a	2.0578934815551486e-06
140	0x3ec14bee5b452346	2.0619160869022542e-06
141	0x3ec1675847816faa	2.0746816141014087e-06
142	0x3ec148bc4530af43	2.0604279966830623e-06
143	0x3ec14ec45788c06a	2.06323664666418e-06
144	0x3ec144b69395b293	2.0585549946244163e-06
145	0x3ec2d4e7ca1ecb1d	2.2449090275265374e-06
146	0x3ec2965276f4d88b	2.2157664073775804e-06
147	0x3ec2d69f0f8e5d3e	2.245708057245894e-06
148	0x3ebf0284e44b2e5e	1.8483305136871176e-06
149	0x3ec059bcbb256c80	1.949135787144391e-06
150	0x3fa28f1bdf69fea4	0.03624808408949079
151	0x3fa2500d472611f7	0.0357669972754912
152	0x3fa28a73e155b34e	0.03621255994480653
153	0x3fa275748bc151cc	0.036052362499194496
154	0x3fa28c1dc2805d52	0.03622525214467011
155	0x3fa0f8570adf939f	0.033144683911621835
156	0x3f9312faac53e3f1	0.018627087371871857
157	0x3f88ba7950d65429	0.012074420718628147
158	0x3fa28dc2cfc338d6	0.036237800466197775
159	0x3fa25b01be2b4efb	0.03585057684327172
160	0x3fa299ee2ce71040	0.036330645543359186
161	0x3fa286f74094b841	0.036185957559027766
162	0x3fa28c15baa59ba3	0.03622501281170478
163	0x3fa282bf6574e3f0	0.036153775343741645
164	0x3fa28cc2098991a2	0.03623014799521519
165	0x3fa28c9444c4aed9	0.036228783983771336
166	0x3fa1eafa09c29b07	0.03499585503714369
167	0x3fa28cad5c871a92	0.03622953180779577
168	0x3fa28c5dce19410e	0.036227160843397596
169	0x3fa28cb76605707e	0.03622983093620834
170	0x3fa26d8dda83f934	0.03599208156991765
171	0x3fa28c649245ef44	0.036227362495053345
172	0x3fa26d3dc7d4a47d	0.03598969520891957
173	0x3f948aa2001cdc7a	0.02006009221733194
174	0x3fa29a49935dcced	0.036333369483054635
175	0x3f757de7ff1c9642	0.005247026668973089
176	0x3f7438c83470d49c	0.004936964082891706
177	0x3f755e14d8dc4cd6	0.005216676172284459
178	0x3f74d8eb3a50fe69	0.005089682444178936
179	0x3f762af8fce1035e	0.0054120756231562355
180	0x3f70e35ae1fdf670	0.004123072634568112
181	0x3f844140c9444ac8	0.009890085355924852
182	0x3facd763a2610c8b	0.05633078915755004
183	0x3f7576061dc806fd	0.005239509479453505
184	0x3f742da7e7ed632d	0.004926353342704454
185	0x3f75fe7a784a4b2e	0.0053696426372365335
186	0x3f7549d70f44ac40	0.005197372509694154
187	0x3f762aebe5dd226a	0.005412026859467825
188	0x3f752c6ef226c487	0.005169328100621879
189	0x3f762b304daf0b36	0.005412281689987355
190	0x3f762b20364c2241	0.005412221745026148
191	0x3f71c50f9d021e35	0.004338322629457593
192	0x3f762b2942e5c04d	0.005412255455993953
193	0x3f762b0f575e3ee6	0.005412158896333818
194	0x3f762b2c8cacbc73	0.005412267705465645
195	0x3f74a845e80ce02c	0.005043290206963074
196	0x3f75e4137207d14c	0.005344463309019009
197	0x3f74a6458c0c4a9d	0.005041381519520852
198	0x3f84749e3c2418b9	0.009988056383474097
199	0x3f75fe3d1359e292	0.005369413925671156
200	0x3e1b026340fdc36d	1.5721497471617968e-09
201	0x3e0a312ae07d7ca4	7.6228928809864e-10
202	0x3dfc48347de126be	4.115580080547658e-10
203	0x3e13774c9fbb6717	1.133071080475368e-09
204	0x3df6dd0a9d405121	3.327068874320656e-10
205	0x3e07b99da9cde9e2	6.904901820529129e-10
206	0x3e01c94f57c62903	5.176514074578241e-10
207	0x3dd18ec57e105018	6.387454412262264e-11
208	0x3e188e6cacb314a2	1.4293674462773547e-09
209	0x3dfa0aabd57498c1	3.7895638489668357e-10
210	0x3df95dc99c46e816	3.6912908517748836e-10
211	0x3df7f0687f4019cf	3.4835967379006645e-10
212	0x3df8c0aff9a0bee1	3.6019897622564157e-10
213	0x3e021a8ca3498eab	5.268872617497179e-10
214	0x3e136844d0be4012	1.1296535399578545e-09
215	0x3e01f14d043d9ff5	5.221978478810209e-10
216	0x3e019316dd9a7371	5.114872372926557e-10
217	0x3dfd5dd7678fc4e2	4.273398089921203e-10
218	0x3e002de5ff63fdfe	4.708793344663272e-10
219	0x3e016bf372a8c69b	5.07037721980825e-10
220	0x3e18d9c4fc82fce3	1.4464989085405085e-09
221	0x3e23512d0a5f3480	2.248805658160816e-09
222	0x3e07566d47d6f7aa	6.792136988948506e-10
223	0x3e1214e66c999354	1.052490027769416e-09
224	0x3e12149e78405cd1	1.0524261193475002e-09
225	0x3e3c92610d9965a6	6.652389050720954e-09
226	0x3e293145e5447abc	2.9327898253515684e-09
227	0x3e200c0816a01dc4	1.868116485291936e-09
228	0x3e327340f9d9fbcc	4.295774317535061e-09
229	0x3e1a2b23e0d04fd5	1.5232081180181702e-09
230	0x3e2810acfee3d4c9	2.8015509834914242e-09
231	0x3e2d1aaff3ff9561	3.3881803196298763e-09
232	0x3e084743a753e1c8	7.065937406841303e-10
233	0x3e3abb15eee2a426	6.223750166419145e-09
234	0x3e1e7969580e9993	1.7738356063759191e-09
235	0x3e21910a55dd421c	2.0450171963080216e-09
236	0x3e1ce8a6fbae313f	1.6827135090895192e-09
237	0x3e1a0a57ec35b28f	1.5157510115443162e-09
238	0x3e274dfe36281c0f	2.71301951846241e-09
239	0x3e32b2f0df491949	4.35369739267752e-09
240	0x3e24e742e4cc917c	2.433471901757515e-09
241	0x3e28c76a291b3a6c	2.8846510257304905e-09
242	0x3e21b4744f617b2e	2.0611216024256766e-09
243	0x3e1f36a36578f6d0	1.8168607919273468e-09
244	0x3e262d9a9638a1a2	2.5818753123048066e-09
245	0x3e3a38518fc2876b	6.104818203176971e-09
246	0x3e41f7c3eb0ae282	8.366924348982528e-09
247	0x3e29e9a4581cc658	3.0166311123541837e-09
248	0x3e36b8f898ddaedb	5.290504379944901e-09
249	0x3e34e984b610f27a	4.868996623472176e-09
250	0x3f13ae3ba9b4a7e0	7.507552293320409e-05
251	0x3f0bbbc6391b4e53	5.289744070826872e-05
252	0x3f131ff8518b8a13	7.295563808499437e-05
253	0x3f112412b52f0ba4	6.538738425291999e-05
254	0x3f1492a37fcfa15d	7.847903175640021e-05
255	0x3f10d883a6ba213d	6.426147018079739e-05

exp_avg f8 [25]
0	0xbf41f4728c16ca67	-0.0005479392349825974
1	0xbf12b254e3e6c013	-7.132189873604337e-05
2	0x3f56f285c0aa5e08	0.001400595300457998
3	0xbf64f9e00edd0634	-0.002560556043051299
4	0x3f2862b114c6c80a	0.00018604671130401123
5	0xbf6b28558e43055a	-0.0033151312837566395
6	0xbf98ce686a55fc46	-0.024224883547045793
7	0xbf6619828628113f	-0.0026977109239415815
8	0x3f34def3efdf4682	0.000318464808399012
9	0xbf789971e7f8e259	-0.006005711503853727
10	0x3f8343181af08f74	0.009405315706380903
11	0x3f5f4db9783dee67	0.0019106208064546772
12	0x3f223b53af3f88b8	0.00013909718074873122
13	0xbf42df6190f27d8a	-0.000575945510622165
14	0xbf4c639aad43e091	-0.0008663659341712362
15	0x3f3df0f89be53604	0.00045686788134421973
16	0xbf87e11e45791538	-0.011659847731730552
17	0x3f3ea81b17b3c36e	0.0004677835601816703
18	0xbf1e13f5b8f26621	-0.0001147383429604067
19	0xbf46b8904fd84aa6	-0.0006933884284897232
20	0xbf41a3ec991622f2	-0.00053834011684825
21	0x3f336ba9d90de5f8	0.0002963342349669713
22	0x3f6c215a368715b9	0.0034338724110251875
23	0xbf728b98658e26ac	-0.004527659701929625
24	0x3f93f9530d22caf7	0.01950578468013028

exp_avg_sq f8 [25]
0	0x3ed9efdbae96e070	6.183849771294975e-06
1	0x3f2861ef0f453a1e	0.00018602412422770524
2	0x3ef1dd01b3ef0bf7	1.7035777314832576e-05
3	0x3f0a9b38f36e1ac8	5.074756193495161e-05
4	0x3f104d0d62097018	6.218332465252085e-05
5	0x3f384830f6436b5d	0.00037051387176994193
6	0x3fa32ed3dddfda9f	0.037466641268044436
7	0x3f765bddbe6b4816	0.005458704172911074
8	0x3ed979f6484441bd	6.0740504788246325e-06
9	0x3f3681baa76b1a81	0.0003434258173168684
10	0x3f153a4571fb11ac	8.097695217219061e-05
11	0x3eff95be41869c7b	3.0121740651669893e-05
12	0x3f11aabcfa0d68fa	6.739405081416022e-05
13	0x3f0349099ea84ae4	3.678379637874431e-05
14	0x3f0f06bd5cea6bff	5.9178022288018654e-05
15	0x3f0b8ce65a0f2e82	5.2548198489069296e-05
16	0x3f521491311632e2	0.0011035364044317754
17	0x3f0e6b1e154e32da	5.8018546645310316e-05
18	0x3f0dd8d0d7525978	5.6928513836473676e-05
19	0x3f0e9dd8dc2e5eb6	5.8396511597167395e-05
20	0x3f156ba2d4413c27	8.171254472809417e-05
21	0x3ec2fa3505187147	2.2622789763849374e-06
22	0x3f1af14de7d45967	0.00010277784345578065
23	0x3f7e77ac1f8883d7	0.007438347202453031
24	0x3f360ece4d0548af	0.00033657585756431246

exp_avg f8 [25]
0	0xbf41f4728c16ca67	-0.0005479392349825974
1	0xbf12b254e3e6c013	-7.132189873604337e-05
2	0x3f56f285c0aa5e08	0.001400595300457998
3	0xbf64f9e00edd0634	-0.002560556043051299
4	0x3f2862b114c6c80a	0.00018604671130401123
5	0xbf6b28558e43055a	-0.0033151312837566395
6	0xbf98ce686a55fc46	-0.024224883547045793
7	0xbf6619828628113f	-0.0026977109239415815
8	0x3f34def3efdf4682	0.000318464808399012
9	0xbf789971e7f8e259	-0.006005711503853727
10	0x3f8343181af08f74	0.009405315706380903
11	0x3f5f4db9783dee67	0.0019106208064546772
12	0x3f223b53af3f88b8	0.00013909718074873122
13	0xbf42df6190f27d8a	-0.000575945510622165
14	0xbf4c639aad43e091	-0.0008663659341712362
15	0x3f3df0f89be53604	0.00045686788134421973
16	0xbf87e11e45791538	-0.011659847731730552
17	0x3f3ea81b17b3c36e	0.0004677835601816703
18	0xbf1e13f5b8f26621	-0.0001147383429604067
19	0xbf46b8904fd84aa6	-0.0006933884284897232
20	0xbf41a3ec991622f2	-0.00053834011684825
21	0x3f336ba9d90de5f8	0.0002963342349669713
22	0x3f6c215a368715b9	0.0034338724110251875
23	0xbf728b98658e26ac	-0.004527659701929625
24	0x3f93f9530d22caf7	0.01950578468013028

exp_avg_sq f8 [25]
0	0x3ed9efdbae96e070	6.183849771294975e-06
1	0x3f2861ef0f453a1e	0.00018602412422770524
2	0x3ef1dd01b3ef0bf7	1.7035777314832576e-05
3	0x3f0a9b38f36e1ac8	5.074756193495161e-05
4	0x3f104d0d62097018	6.218332465252085e-05
5	0x3f384830f6436b5d	0.00037051387176994193
6	0x3fa32ed3dddfda9f	0.037466641268044436
7	0x3f765bddbe6b4816	0.005458704172911074
8	0x3ed979f6484441bd	6.0740504788246325e-06
9	0x3f3681baa76b1a81	0.0003434258173168684
10	0x3f153a4571fb11ac	8.097695217219061e-05
11	0x3eff95be41869c7b	3.0121740651669893e-05
12	0x3f11aabcfa0d68fa	6.739405081416022e-05
13	0x3f0349099ea84ae4	3.678379637874431e-05
14	0x3f0f06bd5cea6bff	5.9178022288018654e-05
15	0x3f0b8ce65a0f2e82	5.2548198489069296e-05
16	0x3f521491311632e2	0.0011035364044317754
17	0x3f0e6b1e154e32da	5.8018546645310316e-05
18	0x3f0dd8d0d7525978	5.6928513836473676e-05
19	0x3f0e9dd8dc2e5eb6	5.8396511597167395e-05
20	0x3f156ba2d4413c27	8.171254472809417e-05
21	0x3ec2fa3505187147	2.2622789763849374e-06
22	0x3f1af14de7d45967	0.00010277784345578065
23	0x3f7e77ac1f8883d7	0.007438347202453031
24	0x3f360ece4d0548af	0.00033657585756431246

exp_avg f8 [1, 25]
0	0x3fa6c800105c5e59	0.0444946308108995
1	0xbfa62d721f5fd2da	-0.04331547387110897
2	0xbfa6b79ae2b36fef	-0.0443695451483278
3	0x3fa6855fb4aad638	0.04398631172572859
4	0xbf9941eb3347a4c7	-0.02466552258002677
5	0xbf9398b7f6feb5fc	-0.019137262773872607
6	0xbf68009c7a1e278a	-0.00292997896116715
7	0xbf97f5e8030fec7c	-0.023398995577718726
8	0xbfa6c4d973282c91	-0.0444705918381142
9	0x3fa61274a56aad60	0.04310955542799877
10	0x3fa22f6d759ebe65	0.03551809368888995
11	0xbfa6ad0de8030680	-0.04428904969382774
12	0x3f994bc9cd18e886	0.024703171866555816
13	0x3fa69d874c3a41b4	0.044170597128985106
14	0xbf99854957b39769	-0.024922510125996142
15	0x3f9963fed495488c	0.024795514798207338
16	0x3fa4c7c4ca211447	0.04058661429784443
17	0x3f996425d4db9731	0.024796095959479906
18	0x3f99490112d21cfa	0.024692551397063923
19	0xbf99821e963be350	-0.024910428924133143
20	0x3fa664112fbd69b7	0.04373220165026075
21	0xbfa2a3abb17188c3	-0.0364049581628634
22	0xbfa67160827bab88	-0.04383374779521093
23	0x3f84c52e27552f64	0.010141716552105336
24	0x3fa4d7d404f13fe5	0.04070913849193384

exp_avg_sq f8 [1, 25]
0	0x3f9304d517914b6d	0.018573121608209165
1	0x3f92be2ec6d94767	0.018303614508404033
2	0x3f92ff427fdf1442	0.018551863722468427
3	0x3f92ecc4e72a2080	0.018481327637829725
4	0x3f91ae2957ff8356	0.017265935893991134
5	0x3f914a2d026e059c	0.01688452079134138
6	0x3f863c8a39557864	0.010857658266726307
7	0x3f837e56b375485b	0.009518315650584855
8	0x3f930533fda949d7	0.018574535710578956
9	0x3f92bdeb75f7f79e	0.018302611422761232
10	0x3f91bf3dbc20e43a	0.017331089599086115
11	0x3f92f943dbec35c9	0.01852899579812631
12	0x3f91acf10bc812a3	0.017261282295310775
13	0x3f92f3533b500271	0.01850633668437002
14	0x3f91af781fb53e9e	0.017270924506475376
15	0x3f91afec7ced0bc1	0.017272658467174077
16	0x3f925544dd3f86ae	0.01790340042487653
17	0x3f91b0024aecbd57	0.01727298338226765
18	0x3f91af805d307985	0.01727104729445152
19	0x3f91afac062bc899	0.017271697880410917
20	0x3f92e4b418ee55d0	0.018450559636752406
21	0x3f9223718bc77204	0.017713331371725274
22	0x3f92e126bc8802d3	0.01843700910285657
23	0x3f82a87aee6749bb	0.00911041297959946
24	0x3f91b38ac5d028a3	0.017286461185030643

exp_avg f8 [1]
0	0xbfa6e33765195f7f	-0.0447022734558109

exp_avg_sq f8 [1]
0	0x3f931177b37a78c1	0.018621321038715836
