model/trained_model/lp/darts_TCN_20230523_150814.pickle.ckpt (torch, 17621 bytes, 36 tensors)

res_blocks.0.conv1.weight f8 [3, 1, 3]
00000000: 8cb0 abc1 5f95 e4bf a75a a28d 4980 c0bf
00000010: 2810 e031 cb12 ca3f 47e5 4a03 535f cf3f
00000020: 6748 d1da 00da ae3f 2102 9ab6 21a1 d7bf
00000030: b801 d70c 2828 aa3f 857b 5f86 9625 c23f
00000040: 1561 8d16 b09a cbbf
-0.6432341368322496 -0.12891501823169912 0.2036985391170003 0.2450965658261259 0.06025698348152347 -0.3692096980303479 0.0510876193689031 0.14177209435635177
-0.21565819836792657

res_blocks.0.conv1.bias f8 [3]
00000000: 35f2 e6c3 bb89 b43f a3ac 960a 0a80 f53f
00000010: 7f28 959c ea25 f03f
0.08022664578215528 1.3437595761886676 1.009256946230863

res_blocks.0.conv2.weight f8 [3, 3, 3]
00000000: dbeb 29d0 48d7 c2bf f366 c263 48bf c03f
00000010: 7808 5a42 5a2d d23f 3895 50ce a76d c4bf
00000020: 9a6a 53bc 9ee6 ce3f d6be 45a6 aad4 ea3f
00000030: 2a0e f6cb 9e6e d33f 454e 41df c3db a1bf
00000040: 6dd5 4b13 c505 de3f d813 9af1 e982 a33f
00000050: e0da 0ed3 2ddf b63f b21c e016 f3c9 b3bf
00000060: a47d 3428 37a7 d5bf e4b3 924e 4406 cfbf
00000070: f262 3f7c d0b2 d5bf 7f14 9313 f7ca b93f
00000080: c5b9 a97d f826 c4bf 9a73 c912 99df d0bf
00000090: 585e 4c25 8497 c23f 33e1 7e1d d43a c93f
000000a0: b00a cc34 89cf b83f 34ba b713 d32b bf3f
000000b0: b6eb 67cb afec ce3f 9cd9 988d 5667 e13f
000000c0: 334c 5786 b027 bcbf b6a7 6048 6c8a c73f
000000d0: 96c6 752c d75c e53f
-0.14719495929952484 0.13083748694480554 0.2840181014981975 -0.15959642003978458 0.2414129657325546 0.8384602782734543 0.30362672727662476 -0.03487979984552373
0.4691021622123433 0.038108168356337735 0.08934294131072873 -0.07730025585634584 -0.33833102155946393 -0.24237874828887052 -0.33903896459155114 0.10075325229543529
-0.1574392903889487 -0.2636473353830354 0.14524890729147688 0.1971078056356049 0.09691674746504009 0.1217624591006164 0.24159810478144345 0.5438645139282019
-0.10998061446962097 0.1839118340879488 0.6675830715523314

res_blocks.0.conv2.bias f8 [3]
00000000: 4d3c 50b6 b370 e03f faa8 037e 376d c13f
00000010: e8e5 76c5 bd4a da3f
0.513757568436526 0.1361455312065301 0.41081184657704606

res_blocks.0.conv3.weight f8 [3, 1, 1]
00000000: a61d ee26 3b31 e33f b1f0 c822 4da3 e53f
00000010: 067f 76c7 5678 e83f
0.5997596512178702 0.6761842421906491 0.7646898170241634

res_blocks.0.conv3.bias f8 [3]
00000000: 0b0e 4e5c ee55 c93f ea3e ae33 4547 dfbf
00000010: 3e30 4109 de70 fc3f
0.19793490893435747 -0.4887249951070617 1.7775555001744716

res_blocks.1.conv1.weight f8 [3, 3, 3]
00000000: 2c5e d42e 8587 d7bf a0ea c588 c3ab b1bf
00000010: d549 de9b b08f b0bf f77e 0436 a8d3 c63f
00000020: e77e 0206 94c2 c43f ffb4 feff acff 943f
00000030: 0969 50e1 d5f4 ba3f 2082 003f 5cc0 cdbf
00000040: 4ac0 7916 41bb abbf bf53 af08 95ff c03f
00000050: ac21 3aad 7a59 d2bf 8794 a9e5 c7b1 b53f
00000060: 8e5e 3e85 d76d cdbf e2e0 b25a d2cf c4bf
00000070: 4dc7 568a 962d c3bf 35e3 136f c614 c83f
00000080: 181f 39dc 467b c33f ae63 2a2c 34ea d13f
00000090: e94f 4b3b 720f d6bf cddf f193 00f8 9ebf
000000a0: 26a8 756c 5cff c0bf 73d7 c386 cfa4 d13f
000000b0: a27a 78fa 3b6e 9ebf bd44 0727 206f b93f
000000c0: 9f1d c601 870a c3bf 6c67 74f4 a70e 94bf
000000d0: 1fcd 21f8 bc44 b43f
-0.3676464993781987 -0.06902715768039025 -0.06469253354433786 0.17833426129890714 0.1621880559296109 0.02050657570332692 0.10529839278061472 -0.23243287159222437
-0.054163011544802034 0.13279974865022656 -0.2867113773031871 0.08474397046082248 -0.22991460805927882 -0.16259221485757452 -0.14982873682816447 0.18813400672640915
0.1521996093090301 0.2799196654610182 -0.3446927622837835 -0.030242928533396985 -0.13279300018194923 0.2756842437805666 -0.029717385447038176 0.09935189202157609
-0.14875876986137102 -0.01958715848477459 0.07917386110220946

res_blocks.1.conv1.bias f8 [3]
00000000: 8bed 82f6 5f5a c9bf 0c89 5b13 4a3e a4bf
00000010: 165c 1e2c 9e30 d73f
-0.19807052170459047 -0.03953773008631076 0.3623423987241393

res_blocks.1.conv2.weight f8 [1, 3, 3]
00000000: fdb8 d657 d85b c1bf 83ed 39c5 820b bfbf
00000010: 15f3 f4b8 df83 afbf bdd7 2f95 86fd a33f
00000020: 8f57 5d75 981b ad3f 2e3b 2261 d063 abbf
00000030: f0a9 dc2e bc33 c43f eca7 db4b 97df a8bf
00000040: ce29 8c07 04c3 d73f
-0.13561538971902812 -0.12126939120383011 -0.061552993133295576 0.03904362269524551 0.05685116226838637 -0.05349589524950314 0.1578288296526149 -0.04858086396218639
0.37127781617223554

res_blocks.1.conv2.bias f8 [1]
00000000: 486c d5a0 b3d3 ce3f
0.2408356223412247

res_blocks.1.conv3.weight f8 [1, 3, 1]
00000000: 3ac6 a49c 6d0a e13f fd4d 0392 bd19 bfbf
00000010: 334e 54a0 1370 e13f
0.5325229701467784 -0.12148651900070458 0.5449312335426327

res_blocks.1.conv3.bias f8 [1]
00000000: 88f6 8980 852f e53f
0.6620509634519331

exp_avg f8 [3, 1, 3]
00000000: 3e26 6051 7e21 623f 79b0 05c2 8111 a83f
00000010: 7a42 09b0 0afe 963f 603d 4089 130b d43f
00000020: 3bb9 e9cd 0e75 dd3f 26ef ed3c 17f5 c03f
00000030: 51f2 ad6c 56b5 de3f 2558 83d4 56c8 d93f
00000040: bd4c 2b16 f170 d83f
0.002213236536594803 0.04700856679377891 0.022453467363734415 0.3131760444966485 0.46026964291276656 0.13247957682676165 0.47981796849470465 0.4028527331660164
0.3818934170241837

exp_avg_sq f8 [3, 1, 3]
00000000: 3cc3 f9bb afa0 e73f 6da8 acd8 2d15 eb3f
00000010: ce44 d125 279a f53f f0b8 faff 818b 2a40
00000020: 70aa 807f a735 2840 8ead ea71 a638 2440
00000030: d8ef d43b d54b 2540 7b6f e502 7adf 2640
00000040: 9126 b634 575e 2440
0.7383650466345908 0.846335337822223 1.3501349904293423 13.27247619567467 12.10479353376033 10.110644874474726 10.648111219161294 11.436477747447261
10.18425907825011

exp_avg f8 [3]
00000000: 8b8a cab6 4b8b 9bbf 15d8 dc3b 7398 a3bf
00000010: 56b5 236d 9831 b1bf
-0.026898558646858233 -0.03827247720475683 -0.06716301598108507

exp_avg_sq f8 [3]
00000000: 52c7 96ae 6d24 813f 0928 2705 d565 b43f
00000010: e332 80c6 3cff b33f
0.008370262995274356 0.0796788346844154 0.07811336370668757

exp_avg f8 [3, 3, 3]
00000000: f6a6 cc28 1a7c 913f e885 2f17 1ea1 9ebf
00000010: eb99 87bb 60d1 8fbf 661f 44fb bb0e 7dbf
00000020: 350c 90a3 571e 98bf 07d1 e378 9b65 a03f
00000030: b959 cb5d 8155 94bf 1ca4 64cb 4d15 8b3f
00000040: 1c0b 6a60 06bc a0bf c602 2bf5 26fe 62bf
00000050: 3a58 9da6 a89d 873f 2d37 a90e d953 233f
00000060: 708b e93b 14ca 213f 661b aa02 a5bd 51bf
00000070: 4fab 9bdb 2ad3 363f 73c7 ca0e a76a 3fbf
00000080: 358f b6b4 a0fc 2dbf 1921 9680 9322 693f
00000090: 65e9 9eac 5877 b13f 780c 5b60 cf3a 7abf
000000a0: abcb e11c 1127 a4bf d4f2 2758 9d50 a73f
000000b0: 9476 dd34 0ef5 94bf de6b a6c4 ae8c a0bf
000000c0: df90 0d23 35f2 5cbf 6633 f368 c258 83bf
000000d0: 25c3 a5ca 1f04 b0bf
0.017074974765967497 -0.029911489644183137 -0.015536075327827489 -0.0070941298511185465 -0.023553246839593995 0.03202520228106392 -0.019857426976921142 0.013224227685514171
-0.032684516209903175 -0.0023184548275313214 0.011531179032015716 0.00014745735764381523 0.00013572213170495338 -0.0010828124456183307 0.0003482799180420286 -0.0004793794494545235
-0.00022878133527825533 0.003068245020305349 0.06822733129857779 -0.006403741897602726 -0.03936055638850829 0.045536915789829685 -0.020466062523488107 -0.03232332373155321
-0.001766731158761074 -0.009446638896770398 -0.06256293008278797

exp_avg_sq f8 [3, 3, 3]
00000000: da6a 26b9 7542 d13f 1d96 aefb 5446 e13f
00000010: 7960 9613 93a1 f73f 677c cfa2 0773 b23f
00000020: cd7b 4100 f0ae b53f 090a c0be b8fb bb3f
00000030: 434d 40f8 563f cd3f 3dfe 9f1f 2697 d23f
00000040: b6b4 0e74 cf20 d93f 262f 1bc9 932f f03f
00000050: 4df7 3ec2 89d2 f33f 58d3 289b 07bd ec3f
00000060: a43f e7e6 46cd f63e a344 57b2 661d fb3e
00000070: 6f9c 6b63 f4b6 2e3f 52aa 70c1 7929 b43f
00000080: c0e4 a1ec 60ef b43f 12be 8af6 c095 bd3f
00000090: f87d bd6f 59f0 f23f 7114 125b b2e7 e23f
000000a0: e271 97e8 9ebe cc3f 4f5e c621 2e9b b23f
000000b0: 6dd8 9067 c49d b43f 4494 6896 6657 bd3f
000000c0: 744f 9c9e f5c6 c33f d899 275d 19b5 d03f
000000d0: 82f4 29ad 86fa db3f
0.26968138772069283 0.5398354449905046 1.4769469037182985 0.07206771588197257 0.08470058447117808 0.1093097177218071 0.22849547502173992 0.29047539795280725
0.39262758573279244 1.0116155486784435 1.2389009082539417 0.8980749159296506 2.174555123152202e-05 2.585873439448341e-05 0.00023433430916172971 0.07875786755236305
0.08177762772710917 0.11556631106463325 1.1836790432788558 0.590783288833917 0.22456728322039426 0.07268036198217341 0.08053233650648091 0.11461487934191533
0.15450926060350023 0.2610534105027944 0.4371658984235368

exp_avg f8 [3]
00000000: 9414 b8ff c97a a1bf 4f32 dd83 d74f 823f
00000010: 6c58 9b83 2937 95bf
-0.03413993116922956 0.008941348754569449 -0.020718239457743357

exp_avg_sq f8 [3]
00000000: d2f0 3b2f 5e33 c33f 8dbe 2386 37ea c03f
00000010: 37bf b65a 3ecc be3f
0.15000512415270478 0.13214773225580637 0.12030400957769137

exp_avg f8 [3, 1, 1]
00000000: bd0b c517 d773 e03f f809 9aef 4eec c1bf
00000010: 96ce 1ce3 7257 e03f
0.5141406502010494 -0.14002405833532783 0.5106748996535824

exp_avg_sq f8 [3, 1, 1]
00000000: 6c0b 20bb 1d26 4840 f84c 8d07 9b54 3c40
00000010: b262 7cf8 9828 4840
48.29778231682471 28.330490562436324 48.317168293700334

exp_avg f8 [3]
00000000: 7a1b 3d3f 48f3 cfbf cc5e b763 e979 a63f
00000010: 56f9 da55 8104 d1bf
-0.24961188400103734 0.0438988622879016 -0.2658999765807456

exp_avg_sq f8 [3]
00000000: 7013 0040 1c14 dc3f 762f dbb2 3235 c83f
00000010: 8263 a648 13f3 da3f
0.43872743845013584 0.1891234753915076 0.4210861405822969

exp_avg f8 [3, 3, 3]
00000000: 8fae d46a c62e ea24 af23 596a 1c9d e824
00000010: 09bd 138b 5f71 e924 63df 1451 e453 fd24
00000020: 0426 d7d5 0fb9 fa24 62e8 f548 79c8 fa24
00000030: 35a2 8f64 c92a fb24 a441 0c18 4fe6 f724
00000040: 80ca 83fd 6d3f f824 a7c2 7f00 eb6c bb3f
00000050: 5dc0 ffd5 dc00 a73f e391 6a11 120b acbf
00000060: 3384 416d f7f8 b43f 65d1 7327 16f5 9b3f
00000070: de6d 1df9 d935 b6bf 28c6 d603 c310 c13f
00000080: 3eed 1452 9a9c b53f 0a8c 67c3 b24b a6bf
00000090: 7a41 0c46 4893 4e3e 6282 c448 c557 b0bf
000000a0: 6b12 fdbb 797a bdbf 65a9 40b4 0c57 66be
000000b0: fa03 9b03 6650 afbf ce7b 75a0 628c 90bf
000000c0: b59e fc44 c755 843e 7fc0 a410 8889 babf
000000d0: c775 789e 96cc d0bf
7.377455100900689e-131 6.935360802468292e-131 7.168988660817888e-131 1.652722478589909e-130 1.5059322797256235e-130 1.5093249251263643e-130 1.530966682586738e-130 1.3468316986816232e-130
1.366449957513142e-130 0.10713070642646959 0.04492845642369112 -0.054771961809169566 0.0819239274728865 0.027302118452057118 -0.0867592080298247 0.13332402884911798
0.08442081932019094 -0.04354628215130425 1.4237743596542232e-08 -0.06383927370598877 -0.11515007819714078 -4.161156266808516e-08 -0.061160266819122414 -0.016160527270922924
1.5150809184429756e-07 -0.10366106420838327 -0.2624870822490632

exp_avg_sq f8 [3, 3, 3]
00000000: af35 702d 01ed e03f 1475 1119 9d02 e33f
00000010: d1b1 2dcc e22a e43f 1730 40ca 5416 0640
00000020: e9dd eb26 d6d7 0a40 8821 45f4 110d 0c40
00000030: 1fab 2f7c 9eb8 ff3f b810 ebc7 9fc3 0240
00000040: 2e83 910e 8ba3 0340 23e8 b3e3 709a 0240
00000050: f808 6ab8 4119 0340 f60f 7a55 600d 0e40
00000060: f53d 00b9 3cf4 1740 f1d9 b050 ac7e 1b40
00000070: cd02 ec6c bfc2 2540 4da9 d946 2a87 1840
00000080: 3bd6 a274 7a0b 1c40 4576 4db6 8e63 2540
00000090: 677a 92b4 9775 ea3f 440e c2f6 72cc f63f
000000a0: b269 2e23 f9f6 0140 c4f4 a669 5aa0 0140
000000b0: 5e2f f892 5b58 0e40 058e 2131 3137 1440
000000c0: 6463 cf54 30a6 0140 91d1 7f33 ec6a 0d40
000000d0: fa37 44e7 00d7 1540
0.528931225535123 0.5940690507519855 0.6302350986348363 2.760903911670549 3.355388931344113 3.5063819011304 1.9825730181716563 2.345519601689457
2.454855073753058 2.325410632064647 2.3873323829039883 3.7565313985705826 5.988512888564846 6.8737042053166855 10.880366710481576 6.131997210535997
7.011209318579456 10.694448182063875 0.8268545653152842 1.4249143256173662 2.2455923794306836 2.2032974485469783 3.793143413733488 5.053898589776058
2.2061468721189375 3.6772083304769656 5.459964383639084

exp_avg f8 [3]
00000000: a2d9 902f ae92 c624 3803 f18d 4817 963f
00000010: a156 8fb2 8f4b b6bf
1.590086003988589e-131 0.021573194182795435 -0.08709047421811046

exp_avg_sq f8 [3]
00000000: 855e 5501 937b a03f 705b 467a 10dc be3f
00000010: 0708 8225 943e b03f
0.03219279662397149 0.12054541573739441 0.0634548751422984

exp_avg f8 [1, 3, 3]
00000000: 2cce 507f 4996 d0a4 34ef 7ed0 f50c d6a4
00000010: d28c db0a 1d3c dca4 ff56 90d1 dc6f b93f
00000020: a42d e95b d88e a0bf 1402 ccf2 3f25 c5bf
00000030: d990 a02e 80bf a4bf 52e3 a903 e735 abbf
00000040: 69ef d028 bf7f b3bf
-2.3368524306669227e-131 -3.10658198246916e-131 -3.9778361858355833e-131 0.09936313740066892 -0.032339822024904735 -0.16519927363698683 -0.040523534480856056 -0.05314561767312988
-0.0761680102013408

exp_avg_sq f8 [1, 3, 3]
00000000: c720 2ba6 84ec d03f a74b 36ad ad6a e03f
00000010: 1257 4a56 75e4 e93f 54a8 54bc e73c 0d40
00000020: eff8 f94f e17d 1340 5b60 3cbe cb63 1a40
00000030: d4e3 1181 9bbe 0c40 0b8b 0882 41ae 1b40
00000040: 2a7f 8d3a da71 2140
0.2644359228838877 0.5130222685860318 0.8091379819258882 3.6547388757071904 4.8729298111268085 6.597456905779917 3.593070038183649 6.920171767970497
8.722368078014899

exp_avg f8 [1]
00000000: d9fb a79d 4b6c d6bf
-0.35035982509719826

exp_avg_sq f8 [1]
00000000: bf10 9ad0 5fab fb3f
1.7293394230373875

exp_avg f8 [1, 3, 1]
00000000: eb30 965e 0136 da3f 15c8 4aee 4ecd eb3f
00000010: 1e73 2cd9 44d1 d1bf
0.4095462249467931 0.8688120512144929 -0.2783977623783346

exp_avg_sq f8 [1, 3, 1]
00000000: 5781 ad47 7efb 4c40 a8e2 dee6 d0a5 6440
00000010: 81bc e251 77a9 6540
57.96479125949798 165.18175071270275 173.29581541332666

exp_avg f8 [1]
00000000: 6d61 07ef 9589 dfbf
-0.4927725633874818

exp_avg_sq f8 [1]
00000000: f9b4 fca6 2e2a 0240
2.270596794688228
